assignment3/checkpoints/351.ckpt (torch_old, 434336 bytes, 16 tensors)

feature_extractor.0.weight f4 [8, 3, 5, 5]
0.21209691 0.28022423 0.22670984 0.24144831 0.28585574 0.23636267 0.20753895 0.3040219
0.20468695 0.24847624 0.2653742 0.18147895 0.19637224 0.23103583 0.26087224 0.20086174
0.24610858 0.27101323 0.22229305 0.24944311 0.23713051 0.29436284 0.17453931 0.28238565
0.2748251 0.1692785 0.17154774 0.068744406 0.11069315 0.16011466 0.10413018 0.15862781
0.09254994 0.12057929 0.101283096 0.02538688 0.07643477 0.15085232 0.108514555 0.12130909
0.119204454 0.066218324 0.1529511 0.029040394 0.05814806 0.036654092 0.083048694 0.08507065
0.06463846 0.108941905 -0.31630483 -0.2669739 -0.23563415 -0.26915738 -0.31488732 -0.36653787
-0.26992682 -0.38189793 -0.37846628 -0.36646882 -0.3588445 -0.25868806 -0.3743085 -0.27886477
-0.36103392 -0.3487015 -0.32352036 -0.302891 -0.36752963 -0.3404659 -0.4519987 -0.39970553
-0.4150449 -0.3748223 -0.38270772 0.21771175 0.16767375 0.16005525 0.1757363 0.20002036
0.11098204 0.25509146 0.25431776 0.15502368 0.19892503 0.114292204 0.14021803 0.11788276
0.2192641 0.21282308 0.19468598 0.2211904 0.25531903 0.21986263 0.1677737 0.18371433
0.22499074 0.20063992 0.1896651 0.21763 0.19930515 0.17325978 0.15113643 0.1746081
0.099280514 0.087756805 0.11112844 0.11833659 0.106702924 0.13775733 0.047155987 0.17322432
0.14617833 0.22918673 0.21161917 0.10293871 0.08261716 0.12735619 0.14635639 0.1645535
0.1521792 0.12482913 0.17095721 0.18813139 0.12856533 0.13695398 0.06065389 0.13070342
0.15956047 0.13171533 0.07016116 0.10915052 0.11283748 0.10110215 0.21787415 0.096987955
0.10377063 0.09626016 0.15179591 0.23138548 0.24025272 0.19639988 0.23521364 0.13785054
0.1698146 0.19833943 0.2269162 0.14726962 0.106081694 0.19423595 -0.08364568 -0.06444508
-0.084668376 -0.00021223672 -0.011260707 -0.07404168 0.020742862 -0.031846248 -0.061727 0.0047963634
-0.07951067 0.03280885 -0.035852633 -0.024020232 0.047818407 0.0317502 -0.0012975837 0.010280871
-0.025653742 0.062727116 -0.002111298 -0.03143958 0.037037615 -0.010027944 -0.057165846 0.4015334
0.33431765 0.31202593 0.4647179 0.37727326 0.3488992 0.33202252 0.45702747 0.42093495
0.44614953 0.37699783 0.32791427 0.34979257 0.29295185 0.45383558 0.392466 0.42843026
0.3963409 0.39731115 0.41152507 0.31286022 0.33699912 0.3653355 0.3700466 0.3406886
0.48757982 0.5629178 0.50808865 0.5229866 0.53946733 0.5498307 0.4364782 0.58425224
0.5358747 0.5138339 0.42739382 0.42951822 0.47971773 0.4467032 0.4784097 0.41716737
0.41517913 0.45257387 0.5168075 0.43461472 0.3942106 0.5188172 0.448249 0.410781
0.4108734 0.14163604 0.016060181 0.106198125 0.14493172 0.20280848 0.079696275 0.18946305
0.1511748 0.28559795 0.28661036 0.024983324 0.17278703 0.07623302 0.1456608 0.25455907
0.16667017 0.24136892 0.14173739 0.20194183 0.27584612 0.04492657 0.26027602 0.08948989
0.19466539 0.17998095 -0.0798118 0.006367924 0.12297142 0.037046835 0.041051503 -0.073437765
00000000: ef2f 593e 8d79 8f3e a026 683e 3a3e 773e
00000010: af5b 923e 0e09 723e 1785 543e c2a8 9b3e
00000020: 7599 513e 8e70 7e3e 21df 873e 9ed5 393e
00000030: ce15 493e a894 6c3e 0c91 853e b3ae 4d3e
00000040: e303 7c3e 3fc2 8a3e caa0 633e 046e 7f3e
00000050: 57d2 723e bab6 963e 6fba 323e da94 903e
00000060: e0b5 8c3e 5857 2d3e 36aa 2f3e dec9 8c3d
00000070: 17b3 e23d 19f5 233e 3442 d53d 546f 223e
00000080: d38a bd3d 46f2 f63d 836d cf3d 25f8 cf3c
00000090: d589 9c3d 0879 1a3e e13c de3d e670 f83d
000000a0: 7721 f43d 799d 873d 379f 1c3e 1fe6 ed3c
000000b0: a92c 6e3d 9a22 163d 6f15 aa3d 8539 ae3d
000000c0: 2b61 843d ef1c df3d b5f2 a1be ceb0 88be
000000d0: 144a 71be ffce 89be e938 a1be daaa bbbe
000000e0: d933 8abe 2088 c3be 55c6 c1be cda1 bbbe
000000f0: 77ba b7be c372 84be 5da5 bfbe 5dc7 8ebe
00000100: 70d9 b8be 0189 b2be 76a4 a5be 8714 9bbe
00000110: d82c bcbe 8c51 aebe 606c e7be 34a6 ccbe
00000120: c480 d4be b5e8 bfbe 44f2 c3be d4ef 5e3e
00000130: abb2 2b3e 86e5 233e 37f4 333e 23d2 4c3e
00000140: 8d4a e33d 599b 823e f035 823e 87be 1e3e
00000150: 01b3 4b3e 0812 ea3d 5195 0f3e 846c f13d
00000160: c586 603e 4bee 593e c35b 473e bc7f 623e
00000170: 2db9 823e ab23 613e decc 2b3e 9c1f 3c3e
00000180: f963 663e 8d74 4d3e 9137 423e 66da 5e3e
00000190: a616 4c3e 036b 313e 82c3 1a3e 77cc 323e
000001a0: 9553 cb3d d7b9 b33d 4f97 e33d 745a f23d
000001b0: 1087 da3d 4210 0d3e a326 413d b761 313e
000001c0: c6af 153e edaf 6a3e b2b2 583e 88d1 d23d
000001d0: 3033 a93d a969 023e 73de 153e b680 283e
000001e0: ddd4 1b3e 6aa6 ff3d 680f 2f3e 84a5 403e
000001f0: a1a6 033e aa3d 0c3e 3770 783d 1ed7 053e
00000200: d263 233e 62e0 063e a7b0 8f3d 4f8a df3d
00000210: 5617 e73d a50e cf3d 671a 5f3e 9fa1 c63d
00000220: b285 d43d 0c24 c53d 6370 1b3e 51f0 6c3e
00000230: cf04 763e 0d1d 493e d8db 703e b128 0d3e
00000240: e1e3 2d3e 7e19 4b3e b85c 683e d9cd 163e
00000250: 5c41 d93d cae5 463e 6d4e abbd c8fb 83bd
00000260: 9d66 adbd dc8b 5eb9 d47e 38bc 2aa3 97bd
00000270: efec a93c 3671 02bd 73d5 7cbd d02a 9d3b
00000280: 7dd6 a2bd 9362 063d 36da 12bd 14c6 c4bc
00000290: 3cdd 433d 7f0c 023d af13 aaba 1971 283c
000002a0: cc27 d2bc 1377 803d b45d 0abb cac6 00bd
000002b0: c1b4 173d 3f4c 24bc bc26 6abd c995 cd3e
000002c0: af2b ab3e ddc1 9f3e 81ef ed3e f629 c13e
000002d0: eaa2 b23e dbfe a93e 81ff e93e c984 d73e
000002e0: b66d e43e dc05 c13e 61e4 a73e 0318 b33e
000002f0: c9fd 953e 235d e83e 4ef1 c83e 365b db3e
00000300: 32ed ca3e 5e6c cb3e 6ab3 d23e 372f a03e
00000310: 268b ac3e 410d bb3e bf76 bd3e bc6e ae3e
00000320: 10a4 f93e 621b 103f 1912 023f 73e2 053f
00000330: 881a 0a3f b4c1 0c3f 127a df3e 8e91 153f
00000340: 162f 093f 9e8a 033f 5dd3 da3e d0e9 db3e
00000350: 909d f53e 48b6 e43e 1ef2 f43e f696 d53e
00000360: 5c92 d43e c3b7 e73e 7f4d 043f d285 de3e
00000370: f9d5 c93e 34d1 043f e580 e53e e351 d23e
00000380: 005e d23e 0a09 113e a490 833c 677e d93d
00000390: fb68 143e 07ad 4f3e cd37 a33d 9a02 423e
000003a0: 91cd 1a3e e539 923e 98be 923e d4a9 cc3c
000003b0: 15ef 303e 0f20 9c3d 1b28 153e 9155 823e
000003c0: 96ab 2a3e 6a29 773e 9b23 113e d7c9 4e3e
000003d0: b43b 8d3e ec04 383d e642 853e 7a46 b73d
000003e0: 5d56 473e ed4c 383e 5e74 a3bd 05aa d03b
000003f0: 71d8 fb3d 6cbe 173d 9f25 283d 8a66 96bd

feature_extractor.0.bias f4 [8]
-0.064760044 0.09691582 0.12593916 0.45516172 0.05073808 -0.18034062 -0.24714293 0.41016752
00000000: eaa0 84bd cd7b c63d 32f6 003e f50a e93e
00000010: bcd2 4f3d 36ab 38be 0913 7dbe 7a01 d23e

feature_extractor.2.weight f4 [16, 8, 5, 5]
0.2722993 0.34728807 0.35634437 0.30261546 0.30724356 0.27508023 0.3574934 0.29399464
0.2566519 0.3188493 0.23669831 0.30519733 0.2604569 0.24836287 0.28589246 0.1779028
0.2412329 0.20946719 0.21070336 0.22545537 0.17182401 0.24222697 0.28812477 0.25824
0.15456893 0.30021206 0.3528852 0.27220562 0.2625078 0.21782391 0.3142832 0.3324761
0.2607725 0.30426595 0.30910623 0.37234133 0.22886035 0.22799881 0.2113683 0.20251128
0.1979461 0.22635642 0.28079015 0.20600049 0.28312087 0.16593584 0.1502997 0.17726551
0.21053058 0.1524114 -0.32688603 -0.2779778 -0.32520193 -0.3205107 -0.25912818 -0.27967015
-0.22834992 -0.24904494 -0.32670608 -0.26636228 -0.21174687 -0.21851249 -0.3514881 -0.29773444
-0.3091572 -0.16617827 -0.23609887 -0.21488324 -0.28885904 -0.29927623 -0.3124291 -0.34888837
-0.36746094 -0.38386953 -0.35917825 0.11241131 0.07988042 0.107469134 0.14877014 0.110127956
0.0457211 0.05915948 0.0710514 0.09702046 0.09279033 0.063535854 0.025883432 0.05262259
0.060457245 0.06348751 0.0028988088 0.015267742 0.06281355 0.0054890714 0.018550966 0.0050290874
0.057268508 -0.02193819 -0.028687458 0.01933305 0.30253866 0.38673586 0.33061406 0.30181745
0.37106976 0.35920635 0.40156224 0.31326613 0.32987043 0.34059352 0.36050996 0.38202432
0.37849814 0.3664226 0.3031196 0.34247786 0.35792583 0.31830752 0.36595565 0.34128898
0.3047128 0.34094453 0.27211282 0.36629826 0.28874665 0.37981594 0.32274142 0.4279347
0.2732875 0.21513592 0.39902472 0.3231329 0.23595953 0.2815054 0.3188343 0.37627178
0.42372155 0.36964116 0.33935964 0.23991396 0.39637354 0.30160055 0.26013756 0.30194983
0.3390943 0.37298504 0.3169831 0.3202638 0.26025063 0.3292253 -0.4200564 -0.40173933
-0.4159854 -0.3620008 -0.38350138 -0.38062793 -0.41490832 -0.36942992 -0.41091824 -0.31367165
-0.3658138 -0.3305866 -0.3696908 -0.33475915 -0.31219134 -0.31690535 -0.31493738 -0.2961182
-0.26926744 -0.26772302 -0.27837548 -0.3170451 -0.30451402 -0.29175568 -0.32057112 -0.5331324
-0.44863084 -0.4257638 -0.41162446 -0.4530316 -0.5360242 -0.4179865 -0.32608494 -0.38223866
-0.4384748 -0.44250008 -0.3583893 -0.35946068 -0.38447168 -0.4673787 -0.4404961 -0.34579968
-0.4000117 -0.37075058 -0.4650098 -0.45422882 -0.41658705 -0.35095206 -0.34990922 -0.4298789
-0.37038264 -0.37076092 -0.44713053 -0.48131487 -0.41423878 -0.46025553 -0.39213154 -0.39515147
-0.3793051 -0.36290503 -0.4590792 -0.4128051 -0.3776551 -0.37308267 -0.36104578 -0.42761382
-0.4745468 -0.47347578 -0.45784196 -0.3205801 -0.39042187 -0.39581615 -0.43079534 -0.40207288
-0.38710442 -0.24145004 -0.2752042 -0.18965393 -0.21379937 -0.25827467 -0.2462357 -0.2056816
-0.24120274 -0.18913937 -0.24075232 -0.21223404 -0.21129449 -0.26679868 -0.22823991 -0.21719421
-0.26108608 -0.2530924 -0.2712124 -0.23328565 -0.22272058 -0.3340308 -0.26406196 -0.2591389
-0.30208907 -0.3470182 0.1948829 0.08099352 0.18056065 0.22359759 0.18236639 0.10233274
00000000: d06a 8b3e becf b13e c572 b63e 6af0 9a3e
00000010: 074f 9d3e 51d7 8c3e 6009 b73e 7786 963e
00000020: e167 833e 3740 a33e 0b61 723e d342 9c3e
00000030: 9b5a 853e d652 7e3e 7f60 923e 272c 363e
00000040: c205 773e 917e 563e 9fc2 573e c6dd 663e
00000050: a2f2 2f3e 590a 783e 1785 933e 0938 843e
00000060: 5147 1e3e 65b5 993e 5ead b43e 895e 8b3e
00000070: 6c67 863e 3b0d 5f3e bae9 a03e 4f3a aa3e
00000080: f983 853e bfc8 9b3e 2c43 9e3e 86a3 be3e
00000090: 5e5a 6a3e 8578 693e ee70 583e 1e5f 4f3e
000000a0: 62b2 4a3e fac9 673e bac3 8f3e cbf1 523e
000000b0: 38f5 903e 16eb 293e 2ae8 193e 1785 353e
000000c0: 5495 573e bc11 1c3e 9b5d a7be 1b53 8ebe
000000d0: de80 a6be fa19 a4be 73ac 84be ed30 8fbe
000000e0: 90d4 69be a305 7fbe 0546 a7be a360 88be
000000f0: 2cd4 58be bdc1 5fbe 40f6 b3be a670 98be
00000100: da49 9ebe a32a 2abe e7c3 71be 5a0a 5cbe
00000110: 55e5 93be bc3a 99be b5f6 9fbe 7fa1 b2be
00000120: d723 bcbe 8c8a c4be 36e6 b7be e737 e63d
00000130: 5898 a33d c718 dc3d 3357 183e c48a e13d
00000140: 0c46 3b3d 3651 723d 6583 913d aab2 c63d
00000150: db08 be3d 161f 823d 7e09 d43c c98a 573d
00000160: 04a2 773d bd05 823d f1f9 3d3b 8d25 7a3c
00000170: 64a4 803d abdd b33b 32f8 973c 0bcb a43b
00000180: 6292 6a3d b8b7 b3bc f601 ebbc 5860 9e3c
00000190: 59e6 9a3e 3e02 c63e 3f46 a93e d187 9a3e
000001a0: dbfc bd3e e5e9 b73e 9199 cd3e 6b64 a03e
000001b0: c7e4 a83e 4662 ae3e c394 b83e b198 c33e
000001c0: 82ca c13e be9b bb3e 7e32 9b3e 4259 af3e
000001d0: 0e42 b73e 34f9 a23e 8a5e bb3e 6ebd ae3e
000001e0: 5103 9c3e 4890 ae3e 5f52 8b3e 728b bb3e
000001f0: 9ad6 933e 3c77 c23e 5d3e a53e 421a db3e
00000200: 57ec 8b3e 974c 5c3e f84c cc3e ad71 a53e
00000210: 609f 713e 7a21 903e 403e a33e b2a6 c03e
00000220: 08f2 d83e 9b41 bd3e 8cc0 ad3e 01ac 753e
00000230: 79f1 ca3e 636b 9a3e c030 853e 2b99 9a3e
00000240: c59d ad3e e5f7 be3e 9c4b a23e 9ef9 a33e
00000250: 923f 853e 3890 a83e a211 d7be c7b0 cdbe
00000260: 0afc d4be 2b58 b9be 4b5a c4be aae1 c2be
00000270: dd6e d4be eb25 bdbe e063 d2be 9299 a0be
00000280: f24b bbbe a642 a9be 1d48 bdbe 8d65 abbe
00000290: 8bd7 9fbe 6b41 a2be 793f a1be ce9c 97be
000002a0: 6cdd 89be fe12 89be 3b87 8ebe bc53 a2be
000002b0: 43e9 9bbe 0061 95be e621 a4be 5d7b 08bf
000002c0: f1b2 e5be b6fd d9be 71c0 d2be c2f3 e7be
000002d0: e238 09bf 5402 d6be 9bf4 a6be c9b4 c3be
000002e0: c57f e0be 5f8f e2be cd7e b7be 3b0b b8be
000002f0: 79d9 c4be 434c efbe b488 e1be a80c b1be
00000300: 55ce ccbe 05d3 bdbe c415 eebe ae90 e8be
00000310: e64a d5be fdaf b3be 4d27 b3be 1619 dcbe
00000320: cba2 bdbe 60d4 bdbe 4bee e4be e76e f6be
00000330: 1b17 d4be 9da6 ebbe 77c5 c8be 4b51 cabe
00000340: 4734 c2be b0ce b9be 6e0c ebbe 315b d3be
00000350: 025c c1be b104 bfbe feda b8be 33f0 dabe
00000360: ccf7 f2be 6b6b f2be 436a eabe 1323 a4be
00000370: 60e5 c7be 6aa8 cabe 3591 dcbe 7fdc cdbe
00000380: 8d32 c6be ae3e 77be 91e7 8cbe a434 42be
00000390: 39ee 5abe 943c 84be 3625 7cbe 339e 52be
000003a0: dafd 76be c0ad 41be c787 76be e153 59be
000003b0: 955d 58be d699 88be b9b7 69be 2968 5ebe
000003c0: 13ad 85be 5495 81be 5adc 8abe 6fe2 6ebe
000003d0: dd10 64be 1606 abbe 2133 87be dbad 84be
000003e0: 6bab 9abe 5fac b1be 628f 473e eedf a53d
000003f0: e4e4 383e c4f6 643e 41be 3a3e d493 d13d

feature_extractor.2.bias f4 [16]
-0.39948866 -0.47886166 -0.23010164 -0.07023273 -0.29624552 -0.8357784 0.011223864 -0.37102178
-0.41921702 0.052540243 -0.2390413 -0.6213078 -0.15016848 -0.40306368 -0.41356322 -0.5456083
00000000: c789 ccbe 5b2d f5be c49f 6bbe 2dd6 8fbd
00000010: 7ead 97be 93f5 55bf 4ce4 373c 91f6 bdbe
00000020: 9da3 d6be 7034 573d 3ec7 74be 070e 1fbf
00000030: c4c5 19be 5d5e cebe 8fbe d3be fcac 0bbf

feature_extractor.5.weight f4 [16, 16, 5, 5]
0.45383224 0.379861 0.32275504 0.25281155 0.23887588 0.4656435 0.4026207 0.28205293
0.27966863 0.22199218 0.35642278 0.3357102 0.37110114 0.31858552 0.2582056 0.34346497
0.29911685 0.28905457 0.30379105 0.22748722 0.30643424 0.30366367 0.27861506 0.22678892
0.26006672 -0.18755044 -0.19880526 -0.1937763 -0.19208561 -0.18172917 -0.18228081 -0.19881263
-0.18704619 -0.2285598 -0.19120562 -0.21165667 -0.18224414 -0.22810833 -0.16802527 -0.22733113
-0.2194295 -0.09410157 -0.11444018 -0.21932478 -0.20779924 -0.17319754 -0.20597062 -0.2231669
-0.21898039 -0.22373115 -0.3292974 -0.26922184 -0.24929748 -0.32004064 -0.27243963 -0.32296243
-0.31188753 -0.29343554 -0.26546234 -0.28925306 -0.3407461 -0.27719966 -0.27665696 -0.30328146
-0.234945 -0.25008824 -0.30846336 -0.2953269 -0.27798152 -0.27963352 -0.281827 -0.29791468
-0.20388967 -0.24110916 -0.26704794 -0.15933383 -0.23213848 -0.2980226 -0.28513616 -0.2751626
-0.28743792 -0.31581998 -0.30744398 -0.29781494 -0.27044308 -0.31297812 -0.35560903 -0.2611244
-0.3477481 -0.28145048 -0.3411536 -0.31709364 -0.29444245 -0.29331288 -0.2788626 -0.3121031
-0.28149578 -0.24685784 -0.27031565 -0.20623061 0.00038238548 0.03237778 0.07998763 0.08699678
0.085473664 0.04504771 0.14404052 0.1805866 0.1447371 0.13267496 0.14299202 0.19575919
0.1520637 0.17543922 0.19581404 0.111858904 0.12060097 0.16095495 0.13525864 0.22803149
0.10491178 0.23250152 0.2208837 0.15297909 0.20759612 -0.059000235 -0.03338767 -0.06155136
-0.12782337 -0.16251944 -0.06503893 -0.14509636 -0.10102324 -0.11955309 -0.18702741 -0.17727928
-0.19884281 -0.1458368 -0.17150487 -0.16670884 -0.20358156 -0.16367728 -0.20458902 -0.2584375
-0.23381066 -0.18297352 -0.21826592 -0.24734004 -0.2791506 -0.27234408 -0.16993561 -0.25293443
-0.18826279 -0.22873506 -0.19759634 -0.20553443 -0.28283545 -0.21926188 -0.19031043 -0.20125695
-0.3137627 -0.27360404 -0.3141091 -0.28902733 -0.17197952 -0.26040047 -0.2434951 -0.27701616
-0.21406834 -0.17227593 -0.121611975 -0.12875344 -0.13809498 -0.071475506 -0.017932596 -0.012160543
0.08260037 0.054801278 0.10139775 0.007115283 0.08993606 0.094421655 0.041633904 0.034317613
0.096663885 -0.018909061 0.05498426 0.04224089 0.086774826 0.064575054 -0.012270086 0.051940054
0.054422926 0.031239238 -0.0699169 -0.100320615 -0.06273291 -0.026754336 -0.02245033 -0.05613801
-0.07735871 -0.078046225 -0.1341335 -0.07205981 -0.091127984 -0.10892738 -0.06779173 -0.07648341
-0.0906273 -0.11232215 -0.111046515 -0.07573686 -0.034786314 -0.0037353886 -0.05494751 -0.078643054
-0.08527026 -0.025911294 -0.060164407 -0.03783607 -0.03838924 -0.06017555 -0.10676961 -0.04843452
-0.065684736 -0.21072772 -0.19368033 -0.25848964 -0.2228947 -0.2285022 -0.17323938 -0.2582267
-0.2803329 -0.26741734 -0.17990147 -0.21473236 -0.27602535 -0.25283033 -0.24317478 -0.22691232
-0.26674116 -0.24352281 -0.20006537 -0.21529984 -0.25734282 -0.30154768 -0.29308322 -0.22683705
-0.18758598 -0.23949301 -0.2641011 -0.34178358 -0.32357755 -0.3239778 -0.33208743 -0.28887868
00000000: b35c e83e 247d c23e 2640 a53e 8470 813e
00000010: e19b 743e d368 ee3e 4d24 ce3e 3e69 903e
00000020: ba30 8f3e eb51 633e 0c7d b63e 35e2 ab3e
00000030: f800 be3e a41d a33e 8633 843e a4da af3e
00000040: d825 993e f6fe 933e 808a 9b3e 69f2 683e
00000050: f3e4 9c3e ce79 9b3e a2a6 8e3e 5b3b 683e
00000060: 7727 853e 390d 40be 9b93 4bbe 4b6d 46be
00000070: 17b2 44be 3617 3abe d2a7 3abe 8a95 4bbe
00000080: 0989 3fbe 950b 6abe 68cb 43be 87bc 58be
00000090: 359e 3abe 3b95 69be d10e 2cbe 7ec9 68be
000000a0: 20b2 60be 53b8 c0bd 9d5f eabd ad96 60be
000000b0: 53c9 54be b25a 31be f6e9 52be dd85 64be
000000c0: 653c 60be c719 65be ab99 a8be 72d7 89be
000000d0: d747 7fbe 5edc a3be 357d 8bbe 555b a5be
000000e0: b9af 9fbe 2f3d 96be aeea 87be fa18 94be
000000f0: 4676 aebe 1ded 8dbe fba5 8dbe b547 9bbe
00000100: 6c95 70be 910b 80be e9ee 9dbe 1635 97be
00000110: 9853 8ebe 202c 8fbe a14b 90be 4688 98be
00000120: 74c8 50be 52e5 76be 82ba 88be 6828 23be
00000130: b6b5 6dbe 6b96 98be 5efd 91be 1de2 8cbe
00000140: 102b 93be 28b3 a1be 4c69 9dbe 337b 98be
00000150: 8477 8abe ab3e a0be 6312 b6be 19b2 85be
00000160: 0a0c b2be 471a 90be afab aebe 195a a2be
00000170: 29c1 96be 1b2d 96be 14c7 8ebe facb 9fbe
00000180: 3720 90be 4dc8 7cbe d066 8abe 1e2e 53be
00000190: e97a c839 909e 043d 8ed0 a33d 5e2b b23d
000001a0: d10c af3d f383 383d 5c7f 133e b2eb 383e
000001b0: f635 143e f2db 073e 806c 123e 1975 483e
000001c0: 96b6 1b3e 57a6 333e 7a83 483e 4816 e53d
000001d0: a4fd f63d 60d1 243e 3e81 0a3e 1681 693e
000001e0: fddb d63d e114 6e3e 562f 623e 8da6 1c3e
000001f0: 1494 543e 3baa 71bd 82c1 08bd 471d 7cbd
00000200: 21e4 02be 7f6b 26be 2133 85bd 2494 14be
00000210: 46e5 cebd 40d8 f4bd 1d84 3fbe b388 35be
00000220: 739d 4bbe 3e56 15be f99e 2fbe b9b5 2abe
00000230: af77 50be 049b 27be c97f 51be ec51 84be
00000240: 106c 6fbe 695d 3bbe 1a81 5fbe b546 7dbe
00000250: d4ec 8ebe af70 8bbe 9a03 2ebe 9f80 81be
00000260: f6c7 40be 8639 6abe b256 4abe 9e77 52be
00000270: cfcf 90be 3086 60be bde0 42be 4d16 4ebe
00000280: 81a5 a0be d415 8cbe e8d2 a0be 64fb 93be
00000290: 661b 30be 3653 85be c856 79be 10d5 8dbe
000002a0: bb34 5bbe 1a69 30be b30f f9bd f1d7 03be
000002b0: c568 0dbe c061 92bd 61e7 92bc 043d 47bc
000002c0: 622a a93d 4e77 603d a0a9 cf3d 5227 e93b
000002d0: 6630 b83d 2460 c13d 5088 2a3d a090 0c3d
000002e0: b7f7 c53d 2de7 9abc 2d37 613d c904 2d3d
000002f0: 00b7 b13d ed3f 843d 7908 49bc 18bf 543d
00000300: 93ea 5e3d 6ee9 ff3c 9730 8fbd e574 cdbd
00000310: 1d7a 80bd e92b dbbc c1e9 b7bc f8f0 65bd
00000320: 3e6e 9ebd b3d6 9fbd 4b5a 09be 1894 93bd
00000330: 4fa1 babd 5115 dfbd 64d6 8abd 56a3 9cbd
00000340: ce9a b9bd 2809 e6bd 5b6c e3bd ed1b 9bbd
00000350: 187c 0ebd 6ccd 74bb a410 61bd 9c0f a1bd
00000360: 2da2 aebd ec43 d4bc f46e 76bd fff9 1abd
00000370: 093e 1dbd a37a 76bd 06aa dabd 4663 46bd
00000380: b885 86bd 02c9 57be 2354 46be c158 84be
00000390: 823e 64be 7bfc 69be aa65 31be 4a36 84be
000003a0: cb87 8fbe edea 88be 1738 38be cde2 5bbe
000003b0: 3253 8dbe fa72 81be cf02 79be b45b 68be
000003c0: 4c92 88be 0b5e 79be f0dd 4cbe 9077 5cbe
000003d0: 70c2 83be 7564 9abe 010f 96be f947 68be
000003e0: 8a16 40be a83d 75be 4238 87be 42fe aebe
000003f0: f5ab a5be 6be0 a5be 5d07 aabe e8e7 93be

feature_extractor.5.bias f4 [16]
0.060904194 -0.38269836 -0.3148864 0.14667429 -0.46037415 -0.06895346 -0.32390848 -0.06144928
0.025424473 0.26957467 -0.41924134 -0.45568132 -0.35686797 0.10772823 -0.58911353 0.11852217
00000000: ad76 793d 0af1 c3be ca38 a1be c931 163e
00000010: 29b6 ebbe 7937 8dbd 55d7 a5be 3db2 7bbd
00000020: fc46 d03c b105 8a3e cda6 d6be 104f e9be
00000030: 66b7 b6be 9ea0 dc3d 25d0 16bf c0bb f23d

feature_extractor.7.weight f4 [32, 16, 5, 5]
-0.30625135 -0.2616071 -0.29046327 -0.26223123 -0.24790202 -0.31973782 -0.32345206 -0.31308132
-0.28467473 -0.30817208 -0.35358718 -0.3535752 -0.36534435 -0.27140695 -0.28074393 -0.3169458
-0.2497267 -0.22222894 -0.26757812 -0.28413492 -0.3159111 -0.22265382 -0.24203828 -0.23415494
-0.3475207 -0.4498135 -0.4104019 -0.41539142 -0.48437586 -0.50257045 -0.45329043 -0.43725038
-0.43320644 -0.48858973 -0.49827015 -0.42596394 -0.46256107 -0.4886972 -0.46103376 -0.5085826
-0.4319619 -0.42394897 -0.48295367 -0.43511605 -0.4442635 -0.44565824 -0.43507332 -0.48168665
-0.46776783 -0.46308902 -0.31680384 -0.32974204 -0.31517863 -0.24725038 -0.24168779 -0.31025773
-0.38485596 -0.34541595 -0.3256495 -0.27633038 -0.41422158 -0.3659828 -0.4083567 -0.31814542
-0.34462062 -0.4180803 -0.36799586 -0.4682373 -0.43445498 -0.33491895 -0.40423605 -0.4541598
-0.4372687 -0.40849745 -0.43165714 -0.39120454 -0.36038375 -0.35427123 -0.35689023 -0.39048147
-0.40112224 -0.39693034 -0.3829144 -0.3589197 -0.36477333 -0.3748971 -0.31569633 -0.37766552
-0.3677516 -0.3131458 -0.34002933 -0.28530267 -0.2599851 -0.34407237 -0.32703415 -0.31112644
-0.25010827 -0.24577214 -0.24286118 -0.35006306 -0.22922273 -0.22337978 -0.2760384 -0.18700486
-0.226418 -0.21759662 -0.2690959 -0.24728407 -0.21557075 -0.19488932 -0.19536771 -0.23448405
-0.2662616 -0.26844147 -0.21534672 -0.19457307 -0.19264022 -0.23908028 -0.22737053 -0.23568834
-0.10441906 -0.19913046 -0.22142716 -0.16046941 -0.13917834 -0.11666175 -0.14617996 -0.20999
-0.19285563 -0.14711933 -0.15644349 -0.1500377 -0.19517095 -0.173481 -0.23248602 -0.19721241
-0.23234552 -0.2273225 -0.2956824 -0.27696806 -0.23051833 -0.30972928 -0.3075677 -0.2870863
-0.28743103 -0.28479922 -0.32896546 -0.3544512 -0.28985235 -0.3567712 -0.26581 -0.30884823
-0.34788924 -0.24224252 -0.24804938 -0.35973424 -0.38199487 -0.38061395 -0.34057578 -0.35318834
-0.3853776 -0.3863134 -0.37405306 -0.41683853 -0.35253537 -0.38865715 -0.41258743 -0.37540027
-0.37255275 -0.35264575 -0.3721178 -0.3625431 -0.37882188 -0.3966296 -0.3527483 -0.6357982
-0.37192076 -0.46957213 -0.64339143 -0.6097872 -0.54529816 -0.38232824 -0.36914706 -0.36504874
-0.68474495 -0.52978027 -0.28127426 -0.29081896 -0.2751377 -0.5674161 -0.33985192 -0.22711329
-0.2807493 -0.26055205 -0.5141065 -0.4164109 -0.15180403 -0.11869759 -0.15611398 -0.46263555
-0.33897182 -0.35856754 -0.3624499 -0.38902107 -0.37975946 -0.3457779 -0.40438133 -0.35812545
-0.32351092 -0.34791815 -0.39030337 -0.3770291 -0.37817293 -0.3523371 -0.3619561 -0.35138375
-0.3658307 -0.38688844 -0.3689827 -0.3433467 -0.3567209 -0.3816831 -0.43824026 -0.40298617
-0.3647786 0.26403278 0.16943079 0.04236635 -0.08687236 -0.09939973 0.253832 0.14491041
0.070840605 -0.109976396 -0.12628648 0.26191533 0.090160966 0.03334099 -0.14289984 -0.12974204
0.1476382 0.056241576 -0.043288473 -0.13042094 -0.116090074 0.046888802 0.057931975 -0.033969514
-0.07690713 -0.016377764 -0.35681853 -0.31291577 -0.37411278 -0.32337657 -0.35066736 -0.3022287
00000000: facc 9cbe 5ef1 85be 9ab7 94be 2c43 86be
00000010: 07da 7dbe adb4 a3be 829b a5be 324c a0be
00000020: e3c0 91be bbc8 9dbe 6109 b5be cf07 b5be
00000030: 6a0e bbbe daf5 8abe abbd 8fbe b846 a2be
00000040: 5bb8 7fbe fc8f 63be 0000 89be 227a 91be
00000050: 1abf a1be 5dff 63be e2d8 77be 50c6 6fbe
00000060: 3cee b1be f44d e6be 3320 d2be 2fae d4be
00000070: 1d00 f8be 75a8 00bf af15 e8be 48df dfbe
00000080: 3ccd ddbe 6f28 fabe 441d ffbe f217 dabe
00000090: ced4 ecbe 8536 fabe 9e0c ecbe 7832 02bf
000000a0: 1c2a ddbe d70f d9be b445 f7be 88c7 debe
000000b0: 8176 e3be 512d e4be eec1 debe a29f f6be
000000c0: 447f efbe 011a edbe 1d34 a2be f3d3 a8be
000000d0: 185f a1be 342f 7dbe 017d 77be 1ada 9ebe
000000e0: d70b c5be 5cda b0be 88bb a6be 2d7b 8dbe
000000f0: da14 d4be 1962 bbbe 2114 d1be f5e3 a2be
00000100: 1d72 b0be 9f0e d6be f469 bcbe cdbc efbe
00000110: e270 debe 7f7a abbe 07f8 cebe a287 e8be
00000120: afe1 dfbe 9426 d1be 2a02 ddbe f64b c8be
00000130: 3884 b8be 0a63 b5be 51ba b6be 30ed c7be
00000140: e55f cdbe 743a cbbe 5b0d c4be 53c4 b7be
00000150: 92c3 babe 83f2 bfbe f3a2 a1be 605d c1be
00000160: f049 bcbe a554 a0be 5318 aebe 3113 92be
00000170: c41c 85be 412a b0be 0571 a7be f74b 9fbe
00000180: 310e 80be b1ab 7bbe 9ab0 78be 773b b3be
00000190: 5db9 6abe abbd 64be e854 8dbe 347e 3fbe
000001a0: 1fda 67be a6d1 5ebe f0c6 89be 0938 7dbe
000001b0: 94be 5cbe 1191 47be 790e 48be 961c 70be
000001c0: 7153 88be 2971 89be da83 5cbe 2a3e 47be
000001d0: 7a43 45be 76d1 74be d2d3 68be 4958 71be
000001e0: a9d9 d5bd dbe8 4bbe cdbd 62be 1852 24be
000001f0: c484 0ebe 5bec eebd 33b0 15be 9e07 57be
00000200: f27b 45be 73a6 16be b932 20be 7ca3 19be
00000210: e5da 47be 01a5 31be d110 6ebe 0df2 49be
00000220: fceb 6dbe 3bc7 68be af63 97be c2ce 8dbe
00000230: ff0c 6cbe d694 9ebe 8379 9dbe fafc 92be
00000240: 292a 93be 34d1 91be 296e a8be a17a b5be
00000250: 8767 94be b7aa b6be 4018 88be 5b21 9ebe
00000260: 8a1e b2be 6c0e 78be a800 7ebe 162f b8be
00000270: d594 c3be d5df c2be f35f aebe 1ad5 b4be
00000280: 3650 c5be dfca c5be e283 bfbe dc6b d5be
00000290: 847f b4be 12fe c6be a93e d3be 7734 c0be
000002a0: 3cbf bebe fc8d b4be 3986 bebe 409f b9be
000002b0: f1f4 c1be 0913 cbbe 6d9b b4be acc3 22bf
000002c0: 666c bebe c26b f0be 4db5 24bf 041b 1cbf
000002d0: a998 0bbf 87c0 c3be d800 bdbe abe7 babe
000002e0: 724b 2fbf ae9f 07bf 2e03 90be 39e6 94be
000002f0: d9de 8cbe 2e42 11bf 1201 aebe 6390 68be
00000300: 5fbe 8fbe 1467 85be 7c9c 03bf cf33 d5be
00000310: 8472 1bbe b917 f3bd 58dc 1fbe 91de ecbe
00000320: b78d adbe 2a96 b7be 0993 b9be c52d c7be
00000330: d56f c2be cd09 b1be 120b cfbe 385c b7be
00000340: 39a3 a5be 5422 b2be d8d5 c7be f509 c1be
00000350: e29f c1be 8765 b4be 4f52 b9be 92e8 b3be
00000360: 294e bbbe 3e16 c6be 4deb bcbe 23cb afbe
00000370: 1fa4 b6be f86b c3be 0761 e0be 3454 cebe
00000380: 43c4 babe 4e2f 873e 447f 2d3e 5688 2d3d
00000390: 23ea b1bd 1692 cbbd 45f6 813e 6563 143e
000003a0: e114 913d 4e3b e1bd 3e51 01be c419 863e
000003b0: 50a6 b83d 9090 083d 5654 12be 19db 04be
000003c0: 782e 173e 915d 663d 414f 31bd 118d 05be
000003d0: a2c0 edbd 790e 403d 144a 6d3d 9e23 0bbd
000003e0: 7c81 9dbd a92a 86bc ebb0 b6be 7f36 a0be
000003f0: b68b bfbe 9d91 a5be ac8a b3be b8bd 9abe

feature_extractor.7.bias f4 [32]
-0.08273366 -0.16560067 -0.2559545 -0.25882468 -0.20101795 -0.35017088 -0.072492555 0.080077805
0.15170996 -0.15597774 -0.2086435 -0.15264302 -0.17101572 -0.08792014 -0.5432427 -0.23699856
-0.3158452 -0.267075 -0.5141252 -0.37777063 -0.4274154 -0.5213362 -0.30116117 0.02854388
-0.4540573 -0.31172988 0.2586394 -0.19696501 -0.2476333 -0.34626266 -0.27750814 -0.42208004
00000000: 4470 a9bd 3993 29be 780c 83be ab84 84be
00000010: a6d7 4dbe 9949 b3be fa76 94bd d5ff a33d
00000020: db59 1b3e a1b8 1fbe a4a6 55be 744e 1cbe
00000030: bf1e 2fbe 790f b4bd f411 0bbf c0af 72be
00000040: 76b6 a1be 0ebe 88be b69d 03bf 276b c1be
00000050: 31d6 dabe 4a76 05bf cc31 9abe dbd4 e93c
00000060: 337a e8be 0f9b 9fbe 626c 843e 32b1 49be
00000070: 9593 7dbe 5749 b1be 8c15 8ebe e01a d8be

feature_extractor.10.weight f4 [32, 32, 5, 5]
-0.15638344 -0.03756799 -0.06839424 -0.124936074 -0.24224268 -0.1566742 -0.1819476 -0.19183476
-0.2464487 -0.21198186 -0.18687268 -0.13609917 -0.123199195 -0.23650052 -0.2520806 -0.15225378
-0.14679877 -0.111963734 -0.19717965 -0.2509241 -0.13826656 -0.14975283 -0.11007286 -0.16475533
-0.18042648 0.0024308944 -0.016960239 -0.06894002 -0.078744814 -0.09070951 -0.032628953 -0.04647446
-0.04235836 -0.04862488 -0.050861854 0.025461273 -0.026183648 -0.0074197114 -0.055669766 -0.014161803
-0.005720939 0.046756826 0.009144472 -0.044115096 -0.0005648791 -0.003501673 0.02808077 0.007827946
0.010632991 -0.029848447 -0.16819935 -0.16785765 -0.15049459 -0.09289505 -0.057693385 -0.16434436
-0.08113414 -0.15135129 -0.0946868 -0.115379974 -0.12687412 -0.11933148 -0.11767175 -0.19491386
-0.19620205 -0.22569379 -0.21361905 -0.1864826 -0.22696239 -0.20738985 -0.22824222 -0.21671449
-0.20754863 -0.16589357 -0.15627855 -0.22711973 -0.23215707 -0.25206742 -0.24964985 -0.28752053
-0.27968183 -0.28434968 -0.32874823 -0.30621853 -0.25761762 -0.27761447 -0.3224933 -0.32172853
-0.34999603 -0.23298062 -0.28551897 -0.2589381 -0.2584858 -0.26863238 -0.28252894 -0.2576633
-0.33581373 -0.33553374 -0.276261 -0.330903 0.07748052 0.040962733 0.12206851 0.020477548
0.0051873825 0.11909856 0.13261218 0.042878564 0.06351342 0.10723946 0.11066437 0.13488463
0.030246573 0.035722826 0.06557732 0.12386314 0.118865505 0.11759603 0.06436855 0.08972341
0.00072596385 0.0197384 0.077100866 0.009479288 0.07452273 -0.06536904 -0.039000135 -0.06593681
-0.052573863 -0.100493185 -0.091484316 -0.09784743 -0.061515126 -0.05276898 -0.12259614 -0.17735347
-0.11369763 -0.08866234 -0.13882697 -0.08783378 -0.21163304 -0.12113435 -0.16605671 -0.18700221
-0.0948924 -0.15446724 -0.20686585 -0.20757437 -0.090180926 -0.15890989 -0.24039638 -0.32435766
-0.3393896 -0.2366485 -0.31154105 -0.21096507 -0.30646008 -0.32010642 -0.22231531 -0.21202141
-0.29163817 -0.285482 -0.22889811 -0.311172 -0.26253277 -0.17165503 -0.30952138 -0.3478561
-0.34948605 -0.34156543 -0.2865916 -0.29320568 -0.31056502 -0.29397896 -0.26744822 -0.29838514
-0.19927742 -0.22433667 -0.31485936 -0.2901331 -0.23835626 -0.30632132 -0.33316517 -0.32208046
-0.32311922 -0.30728516 -0.2932483 -0.3311983 -0.22821686 -0.24288295 -0.16946903 -0.28867108
-0.29527304 -0.23088302 -0.25528273 -0.17599133 -0.28088394 -0.28093937 -0.33974838 -0.27442446
0.18484594 0.21494253 0.13224043 0.19019783 0.25483605 0.19940856 0.23815858 0.15562151
0.24854644 0.24121751 0.090210564 0.14359708 0.15118708 0.20025265 0.13429499 0.124284126
0.17277685 0.1922131 0.18100706 0.1329556 0.12300164 0.08291566 0.20273294 0.16722247
0.14795628 0.022732971 0.0077216057 0.009336217 -0.05871345 -0.07544247 0.022871837 -0.0578364
-0.053923514 0.0181914 -0.054294888 -0.050403792 0.014129236 -0.04162464 -0.05413002 -0.01169607
-0.0014768603 -0.07841488 0.011355051 -0.08956797 -0.09272081 -0.061538868 -0.049561065 -0.101521835
-0.09893167 -0.045812026 -0.34736425 -0.2857769 -0.35063034 -0.29829657 -0.27200833 -0.35029355
00000000: fb22 20be e5e0 19bd 4812 8cbd 7cde ffbd
00000010: 770e 78be 346f 20be 7950 3abe 5570 44be
00000020: 0c5d 7cbe c611 59be 8d5b 3fbe 955d 0bbe
00000030: dc4f fcbd 312d 72be b510 81be 6ae8 1bbe
00000040: 6b52 16be 3e4d e5bd 76e9 49be 2079 80be
00000050: c095 0dbe ce58 19be e16d e1bd 9fb5 28be
00000060: b8c1 38be a44f 1f3b 33f0 8abc 6d30 8dbd
00000070: f644 a1bd e8c5 b9bd f0a5 05bd 015c 3ebd
00000080: f67f 2dbd e22a 47bd 8554 50bd 2994 d03c
00000090: 177f d6bc 0d21 f3bb fb05 64bd e806 68bc
000000a0: b776 bbbb 1684 3f3d b2d2 153c 08b2 34bd
000000b0: 6514 14ba 537c 65bb a509 e63c c940 003c
000000c0: ff35 2e3c bb84 f4bc 733c 2cbe e0e2 2bbe
000000d0: 411b 1abe c33f bebd e64f 6cbd e349 28be
000000e0: a829 a6bd d5fb 1abe 27eb c1bd 564c ecbd
000000f0: 4aeb 01be 1064 f4bd e3fd f0bd 8097 47be
00000100: 31e9 48be 461c 67be f4be 5abe 4bf5 3ebe
00000110: d468 68be 015e 54be 54b8 69be 67ea 5dbe
00000120: a187 54be 01e0 29be 7c07 20be 1392 68be
00000130: 95ba 6dbe fb0e 81be 36a4 7fbe e435 93be
00000140: 7532 8fbe 4896 91be b051 a8be adc8 9cbe
00000150: 75e6 83be 7c23 8ebe d81d a5be 9ab9 a4be
00000160: ae32 b3be 7992 6ebe 8b2f 92be 8993 84be
00000170: 4058 84be 2f8a 89be a2a7 90be 72ec 83be
00000180: c7ef abbe 14cb abbe 1572 8dbe 1e6c a9be
00000190: 1bae 9e3d 8ac8 273d 0eff f93d 88c0 a73c
000001a0: ebfa a93b f2e9 f33d 7dcb 073e 6fa1 2f3d
000001b0: 5313 823d 5da0 db3d 00a4 e23d 321f 0a3e
000001c0: a9c7 f73c 1952 123d 674d 863d f5ab fd3d
000001d0: c26f f33d 30d6 f03d a9d3 833d e8c0 b73d
000001e0: 9c4e 3e3a 6db2 a13c 0fe7 9d3d 044f 1b3c
000001f0: 609f 983d 34e0 85bd 9bbe 1fbd e109 87bd
00000200: b157 57bd 5fcf cdbd 215c bbbd 3c64 c8bd
00000210: 49f7 7bbd 4924 58bd af13 fbbd 269c 35be
00000220: 4eda e8bd 9a94 b5bd a828 0ebe 32e2 b3bd
00000230: 55b6 58be 4915 f8bd c50a 2abe 827d 3fbe
00000240: f256 c2bd a92c 1ebe a4d4 53be 608e 54be
00000250: c7b0 b8bd 46b9 22be 782a 76be 3512 a6be
00000260: 79c4 adbe fc53 72be 4f82 9fbe 3a07 58be
00000270: 56e8 9cbe fde4 a3be a0a6 63be 241c 59be
00000280: 9951 95be b22a 92be 4464 6abe f051 9fbe
00000290: b26a 86be 56c6 2fbe 9679 9ebe 321a b2be
000002a0: d6ef b2be aae1 aebe 22bc 92be 0e1f 96be
000002b0: 6102 9fbe 6984 96be f9ee 88be f0c5 98be
000002c0: 610f 4cbe 83b8 65be 3f35 a1be 538c 94be
000002d0: aa13 74be 26d6 9cbe a094 aabe bbe7 a4be
000002e0: e26f a5be 7b54 9dbe a424 96be d392 a9be
000002f0: aeb1 69be 4fb6 78be 4a89 2dbe b2cc 93be
00000300: 072e 97be 996c 6cbe 6bb4 82be 1237 34be
00000310: 05d0 8fbe 49d7 8fbe 80f3 adbe 5d81 8cbe
00000320: 4148 3d3e e519 5c3e 096a 073e 38c3 423e
00000330: df79 823e c231 4c3e d8df 733e 3f5b 1f3e
00000340: f582 7e3e b901 773e 51c0 b83d 1d0b 133e
00000350: c9d0 1a3e 080f 4d3e a084 093e ad88 fe3d
00000360: 6aec 303e 83d3 443e ea59 393e 8325 083e
00000370: 49e8 fb3d b0cf a93d 3999 4f3e 5e3c 2b3e
00000380: da81 173e 7f3a ba3c 8605 fd3b eff6 183c
00000390: 847d 70bd 9581 9abd b85d bb3c dce5 6cbd
000003a0: e7de 5cbd 2206 953c 5164 5ebd 3574 4ebd
000003b0: 507e 673c 997e 2abd 71b7 5dbd e0a0 3fbc
000003c0: 3593 c1ba fb97 a0bd 890a 3a3c 696f b7bd
000003d0: 68e4 bdbd 2e10 7cbd 8b00 4bbd aeea cfbd
000003e0: b09c cabd 64a5 3bbd bad9 b1be 5a51 92be
000003f0: d285 b3be 54ba 98be ad44 8bbe ad59 b3be

feature_extractor.10.bias f4 [32]
-0.19079633 -0.31231332 -0.0017207914 -0.18400177 -0.42004293 -0.0006859712 -0.2387745 -0.32658547
-0.09071347 -0.059987064 -0.27876833 -0.2853453 -0.19816744 -0.05837821 -0.026330065 -0.13512032
0.16377568 -0.16094907 -0.24359968 -0.16411018 -0.21038453 -0.016107854 -0.027790181 -0.009013239
-0.36252582 0.17557818 -0.18860683 -0.06792217 -0.087561 -0.18234247 -0.30232266 -0.21732496
00000000: 1d60 43be 88e7 9fbe 2e8c e1ba f66a 3cbe
00000010: de0f d7be bfd2 33ba 4d81 74be 3636 a7be
00000020: fcc7 b9bd ffb4 75bd b9ba 8ebe c718 92be
00000030: 68ec 4abe fd1d 6fbd 26b2 d7bc fb5c 0abe
00000040: d0b4 273e d5cf 24be 3272 79be 800c 28be
00000050: 0b6f 57be 9ef4 83bc 3ca8 e3bc 44ac 13bc
00000060: fc9c b9be c4ca 333e 2622 41be c71a 8bbd
00000070: 2e53 b3bd fcb7 3abe 09ca 9abe 6f8a 5ebe

feature_extractor.12.weight f4 [32, 32, 5, 5]
-0.11057103 -0.15826999 -0.21112525 -0.1439676 -0.14463617 -0.13883904 -0.13900357 -0.22282691
-0.13619143 -0.17283706 -0.14586027 -0.09150668 -0.1596031 -0.15275979 -0.167251 -0.14497323
-0.16622116 -0.14098635 -0.1412604 -0.16121624 -0.11156325 -0.13656862 -0.15449215 -0.12056752
-0.15793253 0.019827317 0.0073514027 0.0007116364 -0.0002800293 -0.0008300624 0.015866065 0.008434117
0.0032929417 0.0013775233 -0.0003974655 0.0070510977 0.002697707 0.0014277565 0.0011228888 0.000175612
0.0007463478 0.00091150776 0.00093132263 0.0008496539 0.00020932368 1.0524669e-05 2.3767832e-05 0.00067349954
0.0009827884 5.82095e-05 -0.3894769 -0.42326602 -0.45272198 -0.44656616 -0.48228696 -0.42623264
-0.4246703 -0.46279937 -0.45009896 -0.43505073 -0.38368565 -0.43060684 -0.46019775 -0.46339193
-0.45087433 -0.3815545 -0.42784137 -0.44488806 -0.46385345 -0.4179507 -0.4122782 -0.43683338
-0.3977055 -0.4501238 -0.44839945 -0.064159736 -0.11838843 -0.15151529 -0.14134611 -0.117580056
-0.07424482 -0.10890197 -0.14439543 -0.1515144 -0.10285571 -0.07651172 -0.10608221 -0.1410794
-0.10019407 -0.118224785 -0.040117573 -0.061116084 -0.10208552 -0.08843157 -0.075582825 -0.012861411
-0.033108693 -0.039486196 -0.040120702 -0.028944002 0.020429695 0.03445781 0.03041977 0.0881194
0.04265892 0.011192913 0.028792273 0.090421274 0.07376036 0.11272294 0.06556616 0.052734867
0.11954967 0.09826374 0.12651461 0.032347403 0.083683915 0.0650589 0.0063853976 0.10279876
0.055531275 0.059144694 0.07693277 0.08676716 0.029563185 -0.2273342 -0.26086545 -0.3032996
-0.3168264 -0.2798184 -0.2800651 -0.32599565 -0.31352618 -0.25287873 -0.2786951 -0.30947077
-0.34559155 -0.25659212 -0.30352008 -0.2220756 -0.45874453 -0.45785284 -0.33426273 -0.2570954
-0.21722236 -0.35454842 -0.4282895 -0.26091665 -0.2870997 -0.27238637 -0.28779024 -0.2796948
-0.21457128 -0.251507 -0.21318692 -0.27869895 -0.2520599 -0.29431328 -0.252971 -0.17003396
-0.19984964 -0.24061401 -0.252457 -0.20289466 -0.2553455 -0.2572364 -0.24797563 -0.24107942
-0.18935038 -0.1657502 -0.2914378 -0.23314255 -0.23869295 -0.18547608 -0.18136036 -0.26199004
-0.29763073 -0.30632076 -0.30085242 -0.30041242 -0.31876376 -0.29838666 -0.29748088 -0.22438434
-0.2295638 -0.25942802 -0.3219458 -0.2805355 -0.29700372 -0.22767863 -0.31039518 -0.3138078
-0.27673644 -0.23654743 -0.241444 -0.23422648 -0.2893885 -0.30925602 -0.23101102 -0.3219384
6.9535813e-06 5.2814477e-05 0.0001334657 0.00025289235 1.0520233e-06 9.5032316e-05 0.00030702548 0.0008568467
0.0012905303 3.8634207e-05 0.00044011796 0.0013219722 0.0019523447 0.0018726013 4.3873675e-05 0.00072470633
0.0014278921 0.0016060099 0.0020109762 3.7234186e-05 2.1123536e-05 4.921095e-05 9.375426e-05 0.00010618814
-1.3862456e-06 -0.31550303 -0.31589708 -0.26438403 -0.3171794 -0.27229092 -0.26770192 -0.31855693
-0.33131474 -0.36475247 -0.32073906 -0.25326258 -0.33952218 -0.31745425 -0.26490054 -0.32143036
-0.24162205 -0.31704876 -0.32595035 -0.3304337 -0.31358105 -0.24630763 -0.25996363 -0.2902944
-0.23419861 -0.27160278 -0.10181379 -0.10502499 -0.24329534 -0.19046736 -0.17265512 -0.14926367
00000000: 1073 e2bd 8711 22be 3831 58be 3e6c 13be
00000010: 811b 14be d22b 0ebe f456 0ebe bd2c 64be
00000020: c475 0bbe 33fc 30be 655c 15be db67 bbbd
00000030: ff6e 23be 106d 1cbe d943 2bbe dd73 14be
00000040: e135 2abe ba5e 10be 91a6 10be df15 25be
00000050: 467b e4bd a5d8 0bbe 3133 1ebe 1bec f6bd
00000060: 11b9 21be e66c a23c 09e4 f03b 1c8d 3a3a
00000070: e5d0 92b9 8b98 59ba 8df9 813c 402f 0a3c
00000080: 65ce 573b 038e b43a eb62 d0b9 e50c e73b
00000090: 03cc 303b 8f23 bb3a e52d 933a 7d24 3839
000000a0: 8ea6 433a 40f2 6e3a 0124 743a 4fbb 5e3a
000000b0: e67d 5b39 1c93 3037 0861 c737 ca8d 303a
000000c0: e8d0 803a fa25 7438 8469 c7be 53b6 d8be
000000d0: 2dcb e7be 52a4 e4be 51ee f6be 2a3b dabe
000000e0: 636e d9be 0af4 ecbe 5f73 e6be f8be debe
000000f0: 7272 c4be 8078 dcbe 0a9f ebbe b541 edbe
00000100: 00d9 e6be 1d5b c3be 060e dbbe 5ec8 e3be
00000110: 337e edbe a2fd d5be 2116 d3be a0a8 dfbe
00000120: 0ea0 cbbe a076 e6be 9d94 e5be 2e66 83bd
00000130: a275 f2bd d326 1bbe 09bd 10be d0cd f0bd
00000140: ab0d 98bd ff07 dfbd 65dc 13be 9726 1bbe
00000150: 04a6 d2bd 2db2 9cbd a141 d9bd 1e77 10be
00000160: 8c32 cdbd d61f f2bd 5352 24bd dc54 7abd
00000170: 3712 d1bd 9c1b b5bd 2bcb 9abd abb8 52bc
00000180: fb9c 07bd 47bc 21bd 9b55 24bd f91b edbc
00000190: 2d5c a73c a223 0d3d e232 f93c f277 b43d
000001a0: 1fbb 2e3d 7b62 373c c6dd eb3c ca2e b93d
000001b0: ac0f 973d 49db e63d 8d47 863d 8400 583d
000001c0: 75d6 f43d 803e c93d 0c8d 013e b67e 043d
000001d0: 7962 ab3d 9a3d 853d 993c d13b 2888 d23d
000001e0: c374 633d b541 723d ee8e 9d3d fbb2 b13d
000001f0: 7e2e f23c 4cca 68be 2890 85be 164a 9bbe
00000200: 1237 a2be 5b44 8fbe b164 8fbe e7e8 a6be
00000210: 8186 a0be 5279 81be 20b1 8ebe f472 9ebe
00000220: 60f1 b0be 0b60 83be fc66 9bbe c967 63be
00000230: 90e0 eabe b06b eabe 7c24 abbe 02a2 83be
00000240: 8a6f 5ebe 5f87 b5be c348 dbbe de96 85be
00000250: bbfe 92be 3a76 8bbe 3e59 93be 2834 8fbe
00000260: 93b8 5bbe 87c5 80be ac4d 5abe a1b1 8ebe
00000270: ff0d 81be 3bb0 96be 6a85 81be 621d 2ebe
00000280: 62a5 4cbe 8563 76be 0b42 81be 9ec3 4fbe
00000290: a5bc 82be 7db4 83be 53ed 7dbe 86dd 76be
000002a0: 11e5 41be 6cba 29be 5637 95be ecbc 6ebe
000002b0: ed6b 74be 71ed 3dbe 88b6 39be 8f23 86be
000002c0: 0e63 98be 13d6 9cbe 5409 9abe a8cf 99be
000002d0: 0135 a3be 23c6 98be 6a4f 98be 02c5 65be
000002e0: c612 6bbe c0d3 84be 14d6 a4be 59a2 8fbe
000002f0: df10 98be 9624 69be 1eec 9ebe 6aab a0be
00000300: 66b0 8dbe 7d39 72be 193d 77be 11d9 6fbe
00000310: bb2a 94be ce56 9ebe 278e 6cbe 1cd5 a4be
00000320: cf52 e936 1d85 5d38 edf2 0b39 a396 8439
00000330: 3f33 8d35 164c c738 43f8 a039 029e 603a
00000340: 0327 a93a 2a0b 2238 a2bf e639 0746 ad3a
00000350: d1e5 ff3a 1372 f53a 0005 3838 38fa 3d3a
00000360: 1c28 bb3a c080 d23a 95ca 033b e72b 1c38
00000370: 7332 b137 db67 4e38 ef9d c438 53b1 de38
00000380: 090f bab5 9d89 a1be 43bd a1be 585d 87be
00000390: 5765 a2be b769 8bbe 3a10 89be e519 a3be
000003a0: 16a2 a9be d6c0 babe e937 a4be a2ab 81be
000003b0: dad5 adbe 5d89 a2be 0ba1 87be 8592 a4be
000003c0: c56b 77be 3754 a2be f7e2 a6be 9b2e a9be
000003d0: b28d a0be 1138 7cbe f419 85be 78a1 94be
000003e0: c3d1 6fbe 850f 8bbe c083 d0bd 5817 d7bd
000003f0: 6a22 79be e009 43be 81cc 30be 93d8 18be

feature_extractor.12.bias f4 [32]
-0.0033111954 -0.00519362 -0.13868003 -0.017189924 -0.012153396 -0.040139053 -0.029368088 -0.1222173
-0.0034489532 -0.043998357 -0.013389064 -0.00205288 -0.11825801 -0.006549689 -0.09316518 -0.0060915505
-0.019406345 -0.0067819012 -0.089926936 -0.08631945 -0.11466978 -0.0071127163 -0.017193163 -0.022367084
-0.11259393 -0.011825573 -0.0011352542 -0.12379117 -0.080311164 -0.015853118 -0.04254451 -0.026937816
00000000: a400 59bb 3e2f aabb 2302 0ebe e2d1 8cbc
00000010: 0a1f 47bc d968 24bd 5895 f0bc 104d fabd
00000020: d507 62bb 9f37 34bd ce5d 5bbc 9c89 06bb
00000030: 4131 f2bd c69e d6bb 63cd bebd a19b c7bb
00000040: 0efa 9ebc b63a debb 9d2b b8bd 40c8 b0bd
00000050: fdd7 eabd ca11 e9bb add8 8cbc 2d3b b7bc
00000060: a597 e6bd 0cc0 41bc cfcc 94ba 3a86 fdbd
00000070: 2e7a a4bd 66de 81bc 2743 2ebd b2ac dcbc

classifier.0.weight f4 [64, 512]
-0.17711926 -0.193667 -0.1470437 -0.10118437 -0.21069647 -0.23220499 -0.1598519 -0.15280473
-0.2652951 -0.18384086 -0.1848436 -0.14988597 -0.18361273 -0.18041253 -0.14801838 -0.11105767
0.105609514 0.067425914 0.07766948 0.23078556 0.067713186 0.07848074 0.08867581 0.26414832
0.1385491 0.08484622 0.10804864 0.3139634 0.24549302 0.22454369 0.29191124 0.4440284
-0.20247993 -0.25356576 -0.26032764 -0.122651 -0.17192179 -0.2335218 -0.2151677 -0.19030416
-0.1652408 -0.26338318 -0.23528858 -0.17113177 -0.12068947 -0.22668432 -0.19163066 -0.09095468
-0.11084995 -0.08697641 -0.062111106 0.13389416 -0.023361318 0.008639004 0.025966333 0.08478906
0.15951312 0.07131393 0.02540201 0.086218484 0.22467963 0.10609145 0.06672807 0.12297951
-0.08002723 -0.10156185 -0.1662911 -0.0768213 -0.14437972 -0.13627435 -0.17998773 -0.1654246
-0.16844739 -0.12944476 -0.20252702 -0.14712192 -0.09619182 -0.13214737 -0.15660356 -0.08249958
-0.14091326 -0.22576936 -0.22147307 -0.18105537 -0.18027714 -0.25811076 -0.21830103 -0.21068926
-0.17788243 -0.24253199 -0.25852346 -0.22574149 -0.10999488 -0.15167333 -0.15558662 -0.11976405
-0.01411252 -0.13155934 -0.07126651 -0.093462974 -0.06344151 -0.13625447 -0.17240235 -0.10723842
-0.082292594 -0.113528684 -0.094086446 -0.15364711 -0.07112689 -0.09282189 -0.05799188 -0.11489119
-0.04580173 -0.1921195 -0.21203011 -0.15179099 -0.14322738 -0.23935331 -0.20763098 -0.19199811
-0.13741338 -0.24001834 -0.20597981 -0.18530403 -0.13610125 -0.14724705 -0.18910533 -0.12545218
-0.013796527 -0.11757887 -0.07487834 -0.08492403 0.16553885 0.00087302236 -0.06760906 -0.087354496
0.34284905 0.115477175 0.04269966 -0.029760052 0.5296755 0.4420799 0.23781693 0.030041156
-0.093459584 -0.12026285 -0.14746499 -0.08392252 -0.07956755 -0.07845529 -0.10582745 -0.12378705
-0.016291061 -0.07249851 -0.105575375 -0.008144316 0.1794874 0.1318142 0.11110598 0.11426827
0.14591926 0.04251882 0.0010812676 0.013236377 0.06543471 -0.09509112 -0.121435024 -0.051709414
0.09668479 -0.033180058 -0.06543242 -0.096254975 0.19489798 0.042380203 -0.026219381 -0.035553336
0.06124015 0.028381873 0.020384712 0.072075196 0.21665114 0.0980385 0.067941375 0.16564442
0.37283096 0.28385964 0.2651178 0.29976887 0.62975883 0.6264694 0.6354077 0.6360145
-0.13541266 -0.2284535 -0.17499815 -0.20067811 -0.1996426 -0.24376652 -0.18516935 -0.18629223
-0.22191764 -0.24871793 -0.21273081 -0.16329221 -0.15908386 -0.15632382 -0.13985007 -0.017998299
0.05374606 -0.062429786 -0.11604357 -0.08369544 -0.024778165 -0.15816286 -0.15476969 -0.16915843
-0.046830352 -0.11466408 -0.14962955 -0.16646013 0.04174582 -0.08176943 -0.06290043 -0.036399346
-0.17547826 -0.12259029 -0.12062805 -0.11580276 -0.12470035 -0.22064736 -0.17022051 -0.17859448
-0.10272352 -0.16663535 -0.12488175 -0.11933202 -0.07261732 -0.1854351 -0.12895705 -0.115333535
-0.01929695 -0.09771483 -0.050763704 -0.0142631885 0.019293018 -0.09631893 -0.09449924 -0.043275893
0.08024086 0.017414127 0.011401105 0.007140084 0.22842196 0.1748125 0.17450896 0.19535689
00000000: c05e 35be a450 46be a092 16be c039 cfbd
00000010: d1c0 57be 25c7 6dbe 37b0 23be d878 1cbe
00000020: c2d4 87be c740 3cbe a447 3dbe b57b 19be
00000030: fa04 3cbe 10be 38be 2192 17be 3472 e3bd
00000040: cd49 d83d 9916 8a3d 2d11 9f3d 0d53 6c3e
00000050: 36ad 8a3d 83ba a03d aa9b b53d 733e 873e
00000060: d1df 0d3e dbc3 ad3d 9b48 dd3d d0bf a03e
00000070: 8662 7b3e c8ee 653e 6475 953e b157 e33e
00000080: e656 4fbe 5fd3 81be aa49 85be 7330 fbbd
00000090: 440c 30be 5720 6fbe ec54 5cbe 18df 42be
000000a0: e234 29be 29da 86be 7def 70be 2b3d 2fbe
000000b0: 0a2c f7bd ef1f 68be d43a 44be 7346 babd
000000c0: 4c05 e3bd b020 b2bd 3768 7ebd 8d1b 093e
000000d0: 3c60 bfbc 9c8a 0d3c 59b7 d43c e3a5 ad3d
000000e0: 6857 233e 0a0d 923d e017 d03c 5193 b03d
000000f0: 6b12 663e 7946 d93d baa8 883d aedc fb3d
00000100: 51e5 a3bd a9ff cfbd 3748 2abe 7c54 9dbd
00000110: 47d8 13be 818b 0bbe b44e 38be 1165 29be
00000120: 797d 2cbe 2b8d 04be 3e63 4fbe 21a7 16be
00000130: 3800 c5bd a451 07be af5c 20be 8af5 a8bd
00000140: 914b 10be 1530 67be d6c9 62be 9466 39be
00000150: 929a 38be 1827 84be 4e8a 5fbe edbe 57be
00000160: d026 36be 4e5a 78be 305d 84be c728 67be
00000170: ff44 e1bd 4150 1bbe 1952 1fbe db46 f5bd
00000180: 3338 67bc 7eb7 06be 2df4 91bd 8469 bfbd
00000190: 9fed 81bd 4b86 0bbe 3e8a 30be d19f dbbd
000001a0: 0589 a8bd ba81 e8bd 65b0 c0bd ab55 1dbe
000001b0: faaa 91bd 6719 bebd e588 6dbd 124c ebbd
000001c0: 989a 3bbd f9ba 44be 6c1e 59be 196f 1bbe
000001d0: 33aa 12be 0919 75be 379d 54be 279b 44be
000001e0: 18b6 0cbe 5ec7 75be 5fec 52be 57c0 3dbe
000001f0: 205e 0bbe eec7 16be d4a4 41be 8976 00be
00000200: d40a 62bc 31cd f0bd d159 99bd a6ec adbd
00000210: 0483 293e 8adb 643a 9e76 8abd eae6 b2bd
00000220: e989 af3e 4c7f ec3d d7e5 2e3d 5acb f3bc
00000230: d098 073f 4c58 e23e 4886 733e df18 f63c
00000240: bd67 bfbd 5e4c f6bd 1001 17be 92df abbd
00000250: 50f4 a2bd 2bad a0bd 10bc d8bd 1184 fdbd
00000260: d574 85bc 197a 94bd e737 d8bd bd6f 05bc
00000270: 8ccb 373e 4dfa 063e 888b e33d 7c05 ea3d
00000280: dc6b 153e 3728 2e3d 52b9 8d3a 64dd 583c
00000290: a202 863d 22bf c2bd edb2 f8bd 40cd 53bd
000002a0: ad02 c63d d0e7 07bd 6f01 86bd 5421 c5bd
000002b0: 5693 473e dd96 2d3d 07ca d6bc 60a0 11bd
000002c0: f4d6 7a3d 1a81 e83c d7fd a63c 299c 933d
000002d0: ccd9 5d3e 69c8 c83d d924 8b3d b19e 293e
000002e0: b3e3 be3e 0d56 913e 85bd 873e 4e7b 993e
000002f0: e037 213f 4c60 203f 14aa 223f d9d1 223f
00000300: 9ea9 0abe b7ef 69be b732 33be 907e 4dbe
00000310: 1c6f 4cbe ee9d 79be 099d 3dbe 64c3 3ebe
00000320: 613e 63be eaaf 7ebe 1bd6 59be 1336 27be
00000330: e1e6 22be 5a13 20be db34 0fbe 2b71 93bc
00000340: d424 5c3d 60b6 7fbd 40a8 edbd 8468 abbd
00000350: 94fb cabc 72f5 21be f27b 1ebe de37 2dbe
00000360: 2fd1 3fbd 00d5 eabd 7d38 19be 8674 2abe
00000370: aafd 2a3d bb76 a7bd f1d1 80bd 7b17 15bd
00000380: 93b0 33be 9e10 fbbd d70b f7bd ff29 edbd
00000390: e662 ffbd 62f1 61be 494e 2ebe 79e1 36be
000003a0: b560 d2bd 75a2 2abe 01c2 ffbd 5964 f4bd
000003b0: 64b8 94bd b3e2 3dbe 510d 04be fd33 ecbd
000003c0: a314 9ebc b61e c8bd 9aed 4fbd 26b0 69bc
000003d0: 640c 9e3c dc42 c5bd d188 c1bd 1042 31bd
000003e0: 5255 a43d 12a8 8e3c b3cb 3a3c 5ef7 e93b
000003f0: 72e7 693e 0c02 333e 7ab2 323e a30b 483e

classifier.0.bias f4 [64]
-0.59752333 -0.44797435 0.05066011 -0.7691428 -0.6492104 -0.18139717 -0.5702956 -1.0015366
-0.38745522 -0.5615974 -0.76088786 -0.484978 -0.0062016076 -0.14054188 -0.6263927 -0.6121196
0.017272832 -0.35760987 -0.77790326 -0.5746389 -0.99147135 -0.62396425 -0.37395155 -0.7140027
-0.52822155 -0.62894964 -0.59206104 -0.36947012 -0.85747737 0.08884798 -1.0700032 -0.50959635
-0.7182336 -0.42658436 1.4780117e-06 -0.24570975 -0.9270681 -0.026692385 -0.6876317 -1.0045005
-0.9653899 -8.736449e-06 -0.952127 -0.51900476 -0.25416118 -0.7279733 -0.56964874 -0.5389884
-0.14696783 -0.45044875 -0.7345728 -1.008836 -0.96011746 -0.2145856 -0.9628836 -0.42719612
-0.6870227 -0.97599834 -0.059104346 -0.23861739 -0.78661203 -0.92992145 -0.6652156 -0.76188374
00000000: 4af7 18bf e55c e5be fa80 4f3d 8be6 44bf
00000010: a732 26bf 2ec0 39be e4fe 11bf 5a32 80bf
00000020: 8860 c6be d9c4 0fbf 8cc9 42bf 094f f8be
00000030: db36 cbbb 36ea 0fbe 465b 20bf dfb3 1cbf
00000040: c17f 8d3c a418 b7be ab24 47bf 891b 13bf
00000050: 11d1 7dbf 1fbc 1fbf 9476 bfbe e2c8 36bf
00000060: 8739 07bf d802 21bf 5091 17bf 302b bdbe
00000070: a383 5bbf eef5 b53d ddf5 88bf e874 02bf
00000080: 28de 37bf 4469 dabe 1860 c635 569b 7bbe
00000090: 5654 6dbf fda9 dabc a208 30bf 7993 80bf
000000a0: cb23 77bf c392 12b7 98be 73bf 7fdd 04bf
000000b0: 6a21 82be 755c 3abf 80d4 11bf 25fb 09bf
000000c0: bc7e 16be 38a1 e6be f70c 3cbf 8a21 81bf
000000d0: 42ca 75bf 54bc 5bbe 8a7f 76bf 73b9 dabe
000000e0: b8e0 2fbf 07db 79bf 6617 72bd 1e58 74be
000000f0: 685f 49bf 550f 6ebf 924b 2abf d00a 43bf
