assignment3/checkpoints/5967.ckpt (torch_old, 556998 bytes, 8 tensors)

feature_extractor.0.weight f4 [8, 3, 5, 5]
000000 db dc 0e bd 70 6f 13 3d a6 4a 38 be 60 0b 09 be
       -0.034878593 0.035994947 -0.17997226 -0.13383245
000010 75 da d8 bd 5e 06 1c be 83 60 3b be f0 fc 2c be
       -0.10588542 -0.15236804 -0.18298535 -0.16893363
000020 6e 67 6c be fc 4c 00 be 49 0b d0 be 6a 1f e8 be
       -0.2308633 -0.12529367 -0.4063361 -0.45336467
000030 9d 9e 24 bf ac 75 05 bf c9 81 b1 be 22 53 d4 bc
       -0.64304525 -0.5213268 -0.3466933 -0.025918547
000040 81 50 15 bd d1 83 37 be e7 5c 94 be 7d 72 35 be
       -0.036453728 -0.17921378 -0.2897713 -0.17719455
000050 0c 88 79 3e 21 61 a8 3e ec 2f 6d 3d 99 a9 3a 3e
       0.24368304 0.32886603 0.05790703 0.18228759
000060 5c c5 ee 3d 7e 77 79 3d b3 08 97 3e c1 8a cc 3d
       0.11658737 0.060904972 0.29498824 0.09987403
000070 bc a8 ea 3d f5 f1 88 bc f0 59 88 bd b5 37 60 3e
       0.11457965 -0.016716937 -0.06657779 0.2189625
000080 fe 85 35 3d 7e d1 83 3d c1 1f 91 bd 3f 9a 8c be
       0.044317238 0.06436442 -0.07086135 -0.2746143
000090 03 a7 2d be 14 a2 3e bc 8d a9 b2 bb b3 c3 dc bc
       -0.16958241 -0.011635322 -0.005452341 -0.026948785
0000a0 12 c4 dd 3c b6 04 e0 3c 82 e2 45 3d cd 3a 97 bd
       0.027071033 0.027345996 0.048311718 -0.07384262
0000b0 e2 a9 f5 bd 51 79 42 bd a5 be 79 3e 14 ac 59 3e
       -0.11995293 -0.047478978 0.24389131 0.21257049
0000c0 a5 4f 87 3d 4c fb 25 3c 5b 37 5c 3d a7 92 a4 3e
       0.06606988 0.010130715 0.05376373 0.32143137
0000d0 b3 e4 9b 3e fd 3f 85 3e 50 b1 c2 3d b0 9f 98 bd
       0.3044792 0.26025382 0.09506476 -0.07452333
0000e0 d7 de 64 3e be 59 12 3e ac e8 25 3e e2 48 21 3d
       0.22350632 0.14292046 0.16202039 0.039376147
0000f0 9c 45 b8 bc b3 12 b9 3d 5b 23 21 39 be 2c 30 3e
       -0.02249413 0.0903677 0.00015367327 0.17204568
000100 d8 6f 03 3e 3a 8c 2a 3d b1 33 3e 3e 5e 18 38 3e
       0.12835634 0.041637637 0.18574406 0.17978045
000110 7f bf 78 3e 90 ee 1a 3e 7b 19 43 be 73 a0 9d 3d
       0.242918 0.15130067 -0.19052689 0.07696619
000120 36 a4 34 3e 03 16 54 3e 49 bf 71 3d 4f 90 b2 3e
       0.17640767 0.20711522 0.059020314 0.34875724
000130 42 de bb 3e d7 82 9c be f5 a3 83 be e5 01 18 3d
       0.36693007 -0.30568573 -0.25711027 0.03711118
000140 cc 3d 32 3e 1a a2 39 be 60 a3 0b bf 2d fa bf bd
       0.17406386 -0.18128243 -0.54546165 -0.09373889
000150 11 da c0 3e 3a 49 15 be 3d 6f 0a bf e2 99 07 bd
       0.3766637 -0.14578715 -0.54075986 -0.03310574
000160 57 33 2d 3f 5d 92 54 3d 28 19 3b be 23 f5 dd bc
       0.67656463 0.051897395 -0.18271315 -0.02709443
000170 8b 8d 03 3f 4c e9 83 3e dc 49 fc be 4d a4 29 bc
       0.5138785 0.2576393 -0.492751 -0.010354114
000180 e4 a0 56 3e 14 f9 38 3e 94 a6 7d be 0d 37 10 be
       0.20959812 0.18063766 -0.24770576 -0.140835
000190 32 f7 dd 3e 40 8e e5 3e 8f a5 81 be 49 b0 9e be
       0.43352658 0.4483509 -0.25321624 -0.3099387
0001a0 fe a7 6c 3c 61 1f aa 3e fe 6c af be 8a 5b 3a bf
       0.014444349 0.33227065 -0.34262842 -0.7279593
0001b0 8a d8 ed bc 45 50 b7 3e a0 a0 fe bd 01 6d cd be
       -0.029033918 0.35803428 -0.124329805 -0.40122226
0001c0 87 f3 1e bd 02 96 30 3f a5 8a 37 3e af 79 8a be
       -0.038806465 0.68978894 0.17923982 -0.27045962
0001d0 da f7 84 bd 74 cc dd 3e 53 80 35 3e f9 9d ba be
       -0.064925864 0.43320048 0.17724733 -0.3644865
0001e0 0c 09 dd 3d 25 6e ff 3d 07 79 14 3d c4 97 49 be
       0.10792741 0.1247218 0.036248233 -0.196868
0001f0 e9 4b 5d be 14 b7 0a 3e 5b 03 9d 3e a5 e4 52 be
       -0.21610989 0.13546401 0.30666623 -0.20595033
000200 78 74 8f be 29 45 8b 3c b5 15 65 3e a1 5c 57 be
       -0.28018546 0.017000752 0.22371562 -0.21031429
000210 90 33 26 bf 5c fe c1 bc 6f 56 c3 3e 5d d9 11 be
       -0.6492243 -0.023680858 0.3815188 -0.14243074
000220 a0 15 e8 be 0b 0c cd 3c 7d 30 13 3f a3 22 3c 3e
       -0.45329 0.025030157 0.5749586 0.18372588
000230 ca e2 e2 bd ad f4 80 3c b4 60 fe 3e 81 60 0e 3e
       -0.11078413 0.01574167 0.49683154 0.13904001
000240 b0 e4 d8 be f4 06 a5 3c bf 64 75 3e fc 80 0e 3e
       -0.42361975 0.020144917 0.23964213 0.13916391
000250 8e ea 48 be 9f ec 6d bc 59 a8 4e bb 13 9c 66 3c
       -0.19620726 -0.014521747 -0.0031533448 0.014075297
000260 53 81 8b 3e 1e 52 d7 3e 38 64 94 3e 72 96 9b bd
       0.27247104 0.42054838 0.2898271 -0.075970545
000270 47 64 96 bd bc d1 42 be 45 d3 8e 3e ed 9a d7 3e
       -0.07343345 -0.1902532 0.2789556 0.42110386
000280 8e 50 28 3e a7 90 2a be 1e f5 2c bf 8b 87 cd be
       0.16436979 -0.16656743 -0.6756152 -0.40142474
000290 c7 69 79 3e 72 eb 9a 3e b4 7d be 3d 0b 29 93 be
       0.24356757 0.30257756 0.0930132 -0.2874225
0002a0 01 f4 1f bf 35 c9 01 be 58 6f 35 3e 41 64 f2 3d
       -0.62481695 -0.1267441 0.17718256 0.11835528
0002b0 3b a6 21 3e d0 f9 22 be 96 2f 72 be 99 ea 8f 3d
       0.15786068 -0.15915608 -0.23650965 0.07027168
0002c0 78 aa 9a bd c0 81 f5 bc 34 aa 3a 3e e1 ec 8e bd
       -0.075520456 -0.029969096 0.1822899 -0.06978775
0002d0 aa bf 2d 3a 92 33 84 be 7d 41 42 be 1e 79 08 3e
       0.00066279864 -0.25820595 -0.18970294 0.13327453
0002e0 9f 4c b8 3e f1 ce 70 3e 99 e1 39 be 46 aa 24 bf
       0.35995957 0.23516442 -0.18152465 -0.64322317
0002f0 04 e0 f7 be 74 c3 7a 3e 77 91 de 3e 5d 76 8a 3e
       -0.48413098 0.24488622 0.43470356 0.2704343
000300 2d c8 b9 be 73 d4 04 bf 2c e5 57 be ac 8d 8a 3d
       -0.36285535 -0.5188667 -0.21083516 0.06765303
000310 e2 f3 32 3e db 60 40 3e 88 7d 56 be 6d a6 9f bd
       0.17475846 0.18786947 -0.20946324 -0.07795415
000320 27 42 6c bc e8 07 39 3d 62 08 a2 bc 81 39 84 3b
       -0.014420069 0.045173556 -0.019779388 0.0040351753
000330 61 a6 bd bd 2d 9b 46 3d 61 e3 54 be 62 f1 36 bd
       -0.0926025 0.04848783 -0.20789863 -0.044663794
000340 0b bc 57 3e 7e c1 8d 3e 4e 92 0b 3e e5 a0 ea bd
       0.21067826 0.27686685 0.1363003 -0.114564694
000350 2d 2c d9 be c1 a4 8a be 7e 93 57 3e 86 76 8b 3e
       -0.42416516 -0.27078822 0.21052358 0.27238864
000360 3b ed fe 3d 44 de 51 be 55 46 a1 be d2 8b 3b be
       0.12447592 -0.20494944 -0.31498972 -0.18315056
000370 cf 0d a2 3d ce 98 c1 3e c6 cf 91 3e 15 8d a0 bd
       0.0791279 0.37811893 0.2847883 -0.07839409
000380 77 1c 29 be 80 14 02 3e 32 ae f3 bd 38 a6 34 3d
       -0.16514765 0.12703133 -0.118984595 0.04410383
000390 8e 36 78 3c 65 8c 6c bd 60 37 1c be 0c 4d 80 bc
       0.015149726 -0.05775108 -0.15255499 -0.015661739
0003a0 0f 4f 4c 3e 87 6b 84 3e db f7 b0 3c fd 47 c1 be
       0.19952033 0.25863287 0.021602562 -0.37750235
0003b0 47 f0 36 be ec d5 6b 3e 10 49 66 3e d1 97 c6 3c
       -0.17865096 0.23030823 0.22488809 0.024242314
0003c0 af a7 7f be f7 1f 1b be fa 73 18 3e 2f d4 2c 3e
       -0.2496631 -0.15148912 0.14887992 0.16877817
0003d0 43 53 54 3d 10 3d 25 be 1c d9 aa 3c b4 7d 46 bd
       0.051837217 -0.16136575 0.020855479 -0.048459724
0003e0 3c cd 0c bc 3b 14 f8 ba 35 50 ce bd ef c4 c3 bd
       -0.008593854 -0.0018926928 -0.10073892 -0.095590465
0003f0 b6 74 49 3e 04 07 05 3d 4a 9c 94 bd 5f 9a 92 be
       0.19673428 0.032477394 -0.07256372 -0.286334

feature_extractor.0.bias f4 [8]
000000 9d df 71 3e b3 a6 99 be 4b 1e 59 bf 60 ff 5b be
       0.23620458 -0.30009994 -0.8481185 -0.21484137
000010 cf 6f 20 bd b6 d8 11 3e cc cf 80 be 9e 74 e3 be
       -0.03916913 0.14242825 -0.25158536 -0.4442491

feature_extractor.3.weight f4 [32, 8, 5, 5]
000000 01 95 67 3d 07 65 b2 3d 19 6d a3 3d 7e ed 27 bd
       0.056538586 0.08710676 0.07979793 -0.040997975
000010 d8 a3 28 bc 4a 5e a1 bb 5e 49 b9 3d 3c da 27 3e
       -0.01029297 -0.00492457 0.09047197 0.16391844
000020 7d a8 6b 3d 04 64 c3 bd 9b 7a 49 3d 19 3f 60 3d
       0.05753373 -0.09540561 0.04918919 0.054747675
000030 e6 79 66 3c 82 19 71 3c c3 9a f4 bd ea 94 5d be
       0.014067149 0.014715554 -0.11943581 -0.21638837
000040 b5 64 0b be e7 c2 8d bd 27 04 d0 3d 19 d9 3a bd
       -0.13612635 -0.0692194 0.10157042 -0.045617197
000050 cd 8a 57 be a5 ea 7e bd fa e7 31 3d 7e 22 2d 3c
       -0.21049042 -0.062235493 0.04343412 0.010567306
000060 8e ea b7 bd 06 6d b5 bd 09 6f 29 bd 88 60 ae bd
       -0.08980285 -0.08858685 -0.041365657 -0.085145056
000070 ab b9 ee bd d8 5f d4 bd ad e9 8a ba f4 b1 0e 3e
       -0.11656507 -0.10369843 -0.0010598205 0.13935071
000080 ed fb a4 bd f6 34 f2 bc f1 7a 53 bc 6f ef 47 3d
       -0.080558635 -0.02956627 -0.0129077295 0.048812326
000090 f2 0a 39 bd e6 db 41 3c a6 51 8b bd 48 70 38 3d
       -0.045176454 0.011832213 -0.068026826 0.045028955
0000a0 f7 bd 07 bd d1 2e bf bd c3 f5 3f bd 45 dd 88 3c
       -0.03314015 -0.093351014 -0.046865236 0.016707072
0000b0 b3 9b 2f 3e 62 9d 52 be 53 48 ba bd cb e0 85 3d
       0.17149238 -0.2056785 -0.09095826 0.065370165
0000c0 0b ca f0 3d 6e 26 41 3e 43 98 63 3c 89 20 5e bb
       0.11757287 0.18862316 0.0138912825 -0.0033893904
0000d0 0a e2 8d 3b a2 1c 2b 3d 17 60 9b 3d 38 8c e6 bd
       0.0043299245 0.041775353 0.07586687 -0.11257213
0000e0 44 70 ab bd c1 b3 59 ba 8a 34 46 3c 45 b3 07 3e
       -0.08371022 -0.00083046785 0.012097487 0.1325198
0000f0 a5 d6 21 bd 4a 43 fb 3d 2f 53 26 bd 3f c7 22 3c
       -0.03951134 0.12268694 -0.040606674 0.009935199
000100 6f 12 8f 3c a6 66 b1 3d 12 36 be 3d 33 8a cc 3c
       0.017464845 0.08662157 0.09287657 0.024968242
000110 8c ce 1b be 29 73 e7 bc 20 63 0f 3e ad e8 8e bc
       -0.1521551 -0.028253155 0.14002657 -0.017444933
000120 b5 78 fe bc 27 a4 24 be 40 0b 07 bd ac 10 34 3d
       -0.031063417 -0.16078244 -0.032969713 0.043961212
000130 e0 f2 c3 3d 12 19 96 3d 98 53 cd bd f5 b5 e6 bd
       0.09567809 0.073290005 -0.1002571 -0.11265174
000140 4e be 02 3e b5 4b 69 3e 96 61 c9 3d b8 5b 34 bd
       0.12767908 0.22782786 0.09833066 -0.044032782
000150 df 0d 30 3d 83 8a 42 3e fc c4 e6 3d 3a b8 b2 bd
       0.04298198 0.1899815 0.112680405 -0.08726545
000160 c1 24 29 3d b3 cc ef bc f0 e9 9d 3d b4 3a 88 bd
       0.041294817 -0.029272413 0.07710636 -0.06651822
000170 88 4c e3 bd f2 46 c4 3c 00 77 80 bb 28 ed b4 bd
       -0.110985816 0.02395961 -0.003920436 -0.088342965
000180 70 fc 52 be 25 1f cf bc 6a ba ca 3d 7a 6a 80 3d
       -0.2060411 -0.025283406 0.09898837 0.06270309
000190 32 7b a7 bc 19 86 35 3c 2e 52 a3 3a d4 29 4c bd
       -0.020444486 0.011079335 0.0012460405 -0.049844578
0001a0 e2 77 0f be ae d1 14 be c1 26 a3 3d 03 a6 28 3d
       -0.14010575 -0.14533111 0.07966376 0.041173946
0001b0 11 52 03 3c 7c 0a 8e bc 8c c2 76 3c e9 1e cc 3d
       0.008015172 -0.017338984 0.015061032 0.09966833
0001c0 4f cc 0a 3e e9 7e 4a ba e5 14 d6 bb 20 85 89 bd
       0.135545 -0.00077245996 -0.0065332525 -0.06714845
0001d0 a5 cc 5d bd f7 e4 25 bd 66 c1 6c 3d 87 8a 98 bd
       -0.054150242 -0.04050156 0.057801627 -0.07448297
0001e0 d9 1b 01 bb 01 e1 32 be 28 e7 fc bd 62 ca 55 3d
       -0.0019700436 -0.17468645 -0.12348777 0.05219496
0001f0 dc a0 92 bc 23 ce 5c bc 38 13 17 be ca 48 85 ba
       -0.01789897 -0.013476881 -0.14753425 -0.0010168788
000200 58 db ba bd 78 2c 14 be 44 00 9e bd 80 98 05 be
       -0.09123868 -0.14470088 -0.077148944 -0.13046455
000210 26 d2 b1 bd 35 72 70 bd 59 0a cd bb 72 67 81 bd
       -0.08682661 -0.058702666 -0.006257337 -0.06318559
000220 07 28 b6 bd d5 da 74 3c 32 fe 62 bc 59 27 c8 bd
       -0.08894353 0.014944752 -0.01385455 -0.0977313
000230 39 24 c2 bc 9d 17 9e bd 1e 22 08 be a0 9e 06 bd
       -0.023698913 -0.077193476 -0.13294265 -0.03286612
000240 fb a1 5b 3d 76 a6 01 3d fd d0 96 bd 26 c8 24 bd
       0.053621273 0.03165289 -0.0736408 -0.04022994
000250 23 99 85 3c cd f1 95 3d b4 29 1e 3d 18 51 66 bc
       0.016308373 0.073215105 0.03861399 -0.01405742
000260 63 8a f8 bc e0 4b c8 3b 79 f7 97 bd 42 4c f4 3d
       -0.030339425 0.0061125606 -0.074202485 0.119286075
000270 16 61 79 3c eb 6a 13 be f6 ad c3 bd 5a a2 6d 3c
       0.015220901 -0.14396255 -0.09554665 0.01450404
000280 31 6d e1 bc 41 99 05 bd 95 4a 16 bd 6d 7f df bd
       -0.027517887 -0.032616857 -0.03669222 -0.109129764
000290 6c c6 1a 3d 55 82 9c bb e2 44 80 bb 49 93 f3 bd
       0.037786886 -0.004776279 -0.0039144615 -0.11893327
0002a0 35 c1 48 3c be d9 57 bd 52 e7 a1 bc 90 44 1b be
       0.012253095 -0.05269789 -0.019763622 -0.15162873
0002b0 0b de 1a be 2f 3a bb bc 03 89 68 bb d4 de 93 3a
       -0.15123765 -0.022854893 -0.0035482056 0.0011281618
0002c0 ac 00 b4 bd 07 fa 10 be 80 03 1c be 2d 5a 3e be
       -0.08789191 -0.14157878 -0.1523571 -0.18589087
0002d0 cc 27 a5 3c 40 78 b1 3c 5e 30 c1 bd aa 4a 74 bd
       0.020160578 0.021663785 -0.094330534 -0.059641518
0002e0 21 cb 99 bc 11 68 d3 3c 3a b7 7c bd b3 91 eb bd
       -0.018773617 0.025806459 -0.061698176 -0.11502399
0002f0 60 51 08 be a2 c0 bb bd fe c2 16 bd 16 a7 9b bd
       -0.13312292 -0.09167601 -0.036807053 -0.076002285
000300 1e a5 7e 3d b0 f1 bf 3d ab f9 81 3e 8c 4e 10 be
       0.062169187 0.0937227 0.25385794 -0.14092463
000310 68 0c 93 bc 25 1e 31 3e 34 83 51 3e 79 42 9e 3c
       -0.017950252 0.17296655 0.20460206 0.019318806
000320 5e 7a 55 3d a7 75 3c bd 13 99 b2 bd 2a dc 7d bd
       0.05211865 -0.04601064 -0.08720603 -0.061977543
000330 75 e5 40 bd 91 a5 23 be 98 86 11 be 81 d2 65 bd
       -0.047093827 -0.15981127 -0.142115 -0.056108955
000340 7d c5 42 bb c2 ce 3c 3e db 97 f5 bd 8f 3c f7 bc
       -0.0029719763 0.18438247 -0.11991855 -0.030180244
000350 1a b3 08 3e af 91 56 3d 98 82 ad 3b 9b 6b c6 bd
       0.13349572 0.05238503 0.005295109 -0.09688493
000360 c3 9d 7f bd 42 a8 19 3d a1 95 06 3e 22 7f be 3d
       -0.062406313 0.03751398 0.13143016 0.093015924
000370 01 9b c9 bb 8c 71 18 bc 49 8f b7 3d 76 5f 0b 3e
       -0.006152511 -0.009304415 0.08962876 0.13610634
000380 ab 3a 07 3e 2e 3f 27 bc 8c 28 8f 3c 9f 18 9c bc
       0.13205974 -0.010207934 0.017475389 -0.019054709
000390 f4 51 be bd be 7e 3e bd 75 2d 27 bd a9 67 a2 3d
       -0.09292975 -0.04650759 -0.040814836 0.07929928
0003a0 3c 70 e7 bd 6b 2b 0c bb e1 d1 8e bd 2f a5 3d bd
       -0.11300704 -0.0021388184 -0.06973625 -0.04630011
0003b0 17 24 65 3d ee 32 54 3d 0b a0 f7 3d b8 07 33 bd
       0.05594262 0.051806383 0.12091073 -0.043708533
0003c0 a9 84 0d bd 10 b5 b6 bd 93 0f de bc a9 a8 7c 3b
       -0.034550343 -0.08921254 -0.027107036 0.0038552678
0003d0 54 a4 d8 bd ac d1 ce bd 31 57 0a 3c ee 15 6e 3c
       -0.10578218 -0.100985855 0.00844364 0.014531596
0003e0 83 97 25 3d af 88 8f bd 26 fe 33 be 9d 6c 57 be
       0.040427696 -0.07008492 -0.17577419 -0.21037526
0003f0 99 d9 25 3d bc eb 95 3e 4d ec 8b 3d 5d bc 89 bd
       0.04049072 0.29281414 0.0683218 -0.067253806

feature_extractor.3.bias f4 [32]
000000 30 dd 1b be c6 2c c0 be 89 fb 33 3e 95 b9 5b 3e
       -0.15221095 -0.3753416 0.17576422 0.21457513
000010 d3 d7 62 be f7 52 12 be e8 75 86 3d 6b 3e 6c bd
       -0.22152643 -0.14289461 0.065654576 -0.057676714
000020 f4 d0 38 3e 93 4c 0b be ea c3 44 3e 6e 2a c7 3e
       0.1804846 -0.1360343 0.1921536 0.3889956
000030 93 9f da 3e 53 6c 0d 3f e9 98 a4 3e 22 04 89 be
       0.4269987 0.55243415 0.3214791 -0.26760966
000040 9c a9 a2 bc 72 e7 f0 bc 7c d7 df 3e 14 fd 02 3e
       -0.019856267 -0.029407237 0.4371909 0.12791854
000050 c5 0f 7e be ba fd 0f be 8b 79 67 3d be 26 14 3e
       -0.24810703 -0.14061633 0.056512397 0.14467904
000060 00 bf a2 bd 6b 3d 5a 3f 51 43 f0 be 20 0b 4f be
       -0.079465866 0.85249966 -0.46926358 -0.20219088
000070 4d 0e 2c 3f 8c 4e a9 bd 41 03 0d be 6f 81 a6 be
       0.6720932 -0.08266935 -0.13770773 -0.32520625

classifier.0.weight f4 [64, 2048]
000000 6f 16 ed ba 27 7e cf 3c dc 2a 81 3d dc 43 d9 bc
       -0.0018088351 0.025328709 0.06307003 -0.026521616
000010 b3 a1 5e 3d 88 3d 04 bc e1 20 ba bc f9 fb 11 3b
       0.054353427 -0.008071311 -0.022720756 0.0022275432
000020 56 62 22 bd 59 59 c7 3c 0c 7c 51 3c b2 3a e5 bc
       -0.03964456 0.024334596 0.012785923 -0.02798209
000030 c3 a0 b2 bc 21 90 01 bd dc 02 36 bc 90 43 b2 bb
       -0.021805173 -0.031631593 -0.01110908 -0.005440183
000040 73 49 40 3b 6a 32 63 3c 99 18 f7 3a cd ae f5 ba
       0.0029340654 0.013867 0.0018851935 -0.0018744111
000050 78 5d 77 bc 06 a8 09 bd c4 8a fd bc cf 5a 4a 3c
       -0.015097968 -0.033607505 -0.030949958 0.012350752
000060 dd 41 c3 b9 2a d7 a0 bb c0 18 cd 3c e7 72 5e 3d
       -0.0003724237 -0.004908462 0.025036216 0.0543088
000070 49 1d 49 3d dc 48 0b 3c bd c1 c9 bc f4 3c 81 3d
       0.049100194 0.008501258 -0.024628514 0.06310454
000080 c3 5f ec bc 6c 98 06 bc b4 99 c4 3c ff b6 97 3c
       -0.028854256 -0.008215051 0.023999073 0.018519877
000090 aa 11 bd 3c 11 84 e9 3c 37 37 67 bc 62 2c 11 bd
       0.023079712 0.028505357 -0.014112285 -0.035442717
0000a0 35 06 36 3d 83 c5 e7 bb 99 39 c2 bc 12 68 92 bc
       0.044439513 -0.007073106 -0.023709105 -0.01787189
0000b0 e7 af 84 3d 37 67 1a 3d e9 cf 9b bc 71 58 8d 3c
       0.06478863 0.03769609 -0.019020038 0.017254086
0000c0 4e 72 f9 bc aa 1d 2d bc 3f 06 df 3b 53 68 bd bc
       -0.030450013 -0.0105661545 0.0068061645 -0.023121035
0000d0 ac 70 96 3b 47 ac 81 3c a7 1d 94 bc 7b de 36 bd
       0.0045910683 0.015829219 -0.018080546 -0.044645768
0000e0 ac 3a c4 bc 1d 68 2e bc d3 79 38 3b b2 5c 0e bc
       -0.023953758 -0.01064494 0.0028148785 -0.0086890925
0000f0 b2 b4 4c bd e8 8f 0e bd 38 0c 4b bc 5a d9 0c 3b
       -0.049977012 -0.03480521 -0.01239305 0.0021491856
000100 ef 06 5b bc eb 92 df bc a0 73 94 bb 21 05 3a bc
       -0.013368352 -0.027291736 -0.004530385 -0.011353762
000110 ec 9d 29 bd d9 f8 85 bc 82 f4 d8 3c 29 d6 1b 3c
       -0.04141037 -0.016354011 0.026483778 0.009511509
000120 02 55 56 3c dc e5 13 3d a2 d0 ab 3c 79 fc 9d bc
       0.013081791 0.036107883 0.020973507 -0.019285427
000130 34 73 1b bd 86 98 81 bd 14 9a c3 bc c6 2b ad 3c
       -0.037951663 -0.0632792 -0.023877181 0.021139037
000140 00 85 20 3c 4e 2a 76 3c c5 99 2d bd 97 7f 06 bc
       0.009797335 0.015024735 -0.042382974 -0.008209131
000150 87 8e 6f bd b8 9e 8b bd cb 6c 24 bd 99 b2 cf 3c
       -0.058485534 -0.068173826 -0.040142816 0.025353717
000160 23 0e 26 bb 88 21 26 bc bb e7 03 3c 90 f2 17 bd
       -0.0025338016 -0.01013983 0.008050854 -0.03709656
000170 7d 58 a3 bd 47 40 03 3d 6f 36 a1 3b 4f 97 0b 3d
       -0.07975862 0.03204372 0.004919819 0.034079846
000180 55 49 a1 3c db 90 74 3c 81 45 ed bb c3 9b b7 bc
       0.019688288 0.014927114 -0.0072409515 -0.02241314
000190 7a f5 b5 bc b5 fe 35 3d c9 d6 ea 3c 6f 41 45 3d
       -0.022211779 0.04443236 0.02866687 0.048158105
0001a0 b1 5b 3d 3d 01 81 9b bc b7 66 d7 3c b7 b5 23 bb
       0.046230022 -0.018982412 0.026294095 -0.0024980137
0001b0 e9 cd fe 3b 60 85 56 3d cb bc 40 3d 98 e1 16 3c
       0.0077760112 0.05237329 0.047055047 0.009209059
0001c0 a4 0a d0 3c ae 35 fa 3b 7a c0 b5 3c d4 f8 40 3b
       0.025395699 0.0076357936 0.022186507 0.0029445188
0001d0 c7 68 81 3b 76 0e 3c 3a 99 f0 3a bc 8d eb e4 3c
       0.003949258 0.00071737857 -0.011409902 0.02794435
0001e0 7d 78 fa bc a5 71 80 3c 3e ca d9 3a 51 a8 7e bd
       -0.030575031 0.01567919 0.0016616059 -0.062172238
0001f0 06 42 c2 3c 37 33 b0 3c 92 88 f2 bc b8 cc 16 3d
       0.023713123 0.021508796 -0.029606137 0.03681633
000200 a0 b1 21 3b 9e dc 89 3d d8 ff 03 3d 24 77 5e 3d
       0.0024672523 0.067315325 0.032226413 0.05431284
000210 d2 1a 80 3d 43 1e 26 3c f5 db 5f 3c 7b 5b b2 3d
       0.062551156 0.010139051 0.013663282 0.08708855
000220 40 81 1b bd ec 08 46 bb a7 3b b8 bc 6e f6 59 3b
       -0.03796506 -0.003021772 -0.022489382 0.0033258456
000230 f3 c7 04 bb d8 66 d4 bc 40 a4 c3 bc 7d ba 10 3d
       -0.002026078 -0.025927946 -0.023882031 0.0353341
000240 d0 e7 5f bd 72 00 a5 3c 10 b6 2e 3d 6b 78 64 ba
       -0.054664433 0.020141814 0.042654097 -0.00087154534
000250 96 e0 90 bb fb 97 cf ba f0 23 b3 3b 68 31 13 3d
       -0.004421304 -0.001583814 0.0054669306 0.03593579
000260 f0 c3 f9 3b 53 98 4d 3c a3 ed 36 3c 29 36 56 3d
       0.0076222345 0.012548524 0.011165055 0.052297745
000270 50 11 6f bb c8 e7 72 bb 83 89 2f 3b 6d f0 15 3d
       -0.0036478825 -0.0037064422 0.0026784844 0.03660624
000280 d6 1b 9b 3c 7a 55 30 3c b3 d2 0e 3d 92 49 28 3c
       0.018934172 0.010762567 0.034868907 0.010271447
000290 70 4d 62 bb ea 3a 2e bc b3 4c c7 bb da ce 4c 3d
       -0.003453102 -0.010634163 -0.0060821413 0.050001957
0002a0 f0 c1 c4 ba cb 17 3a bb bb 2c 29 bc 68 41 85 3c
       -0.0015011411 -0.002839553 -0.010325606 0.01626654
0002b0 59 d6 1d 3a 27 ec 59 3d 17 7c 43 bc a9 b7 28 3d
       0.0006021015 0.053203728 -0.011931441 0.041190777
0002c0 88 67 7e bc 51 82 c1 3c 68 74 f2 3c 06 d3 3a 3d
       -0.015527613 0.02362171 0.029596522 0.045611404
0002d0 10 e3 93 3a cb 1b 8f 3c d7 3b 4f bc be a2 d0 3c
       0.001128288 0.017469307 -0.012648544 0.025468227
0002e0 88 a7 18 3b 80 30 ad bd 05 d9 12 bd 28 48 75 bc
       0.0023293216 -0.08456516 -0.035851497 -0.014970817
0002f0 3a b0 54 3b 83 00 16 bd c3 8d e9 bc ec ea 48 3d
       0.0032453672 -0.03662158 -0.02850998 0.049052164
000300 77 c5 94 bb 9d 6e 45 bc 6b aa ae 3c be 3c b0 bc
       -0.004540141 -0.012050298 0.021321496 -0.02151334
000310 04 74 b1 ba 55 08 c8 3c 48 4c 0e 3d 31 93 1e 3c
       -0.0013538604 0.024418036 0.034740716 0.009678648
000320 f2 3f 31 bb 4a ed 65 bc 43 d2 d3 3c b0 7a 15 3d
       -0.002704617 -0.014033625 0.025857097 0.036493957
000330 e1 9e 8a 3d 32 d2 96 3a 75 5d 34 3d 55 2d e3 bb
       0.06768585 0.0011506735 0.04403444 -0.0069328942
000340 26 58 c6 bc 7d f6 e6 3b 34 69 a5 bb 10 93 ce ba
       -0.024211954 0.0070484267 -0.0050479416 -0.0015760381
000350 0d 6e 9b 3d 0d 86 6b 3d 20 21 00 3d 37 eb ce 3b
       0.0758935 0.057500888 0.03128159 0.006314661
000360 86 e0 5c 3c 5e 39 ce 3c ec 80 07 3d e3 86 98 38
       0.013481265 0.02517384 0.033081934 7.2730494e-05
000370 78 02 61 3d fc d4 03 3d 8a 0a f0 3b fd 5f 37 bc
       0.054933995 0.03218554 0.007325475 -0.011192319
000380 4d 8f 40 3c aa bd 48 3c d2 61 c7 3c 7c e1 16 3d
       0.011752916 0.012252251 0.024338637 0.036836132
000390 76 af 2b 3d 0b ce 4f 3d 53 a6 b6 bb 71 fe 44 39
       0.04191538 0.050733607 -0.0055740266 0.00018786803
0003a0 56 98 4d bc 57 73 c5 bb ae 08 ef bc e8 d0 2a 3d
       -0.012548527 -0.0060257125 -0.029178943 0.041703135
0003b0 67 ac 14 3d a4 a5 13 bc 3a d3 ba bb 95 c5 ab 3b
       0.03629723 -0.00901166 -0.0057014497 0.0052420595
0003c0 db f4 13 3a bf 20 25 bd 32 1c e3 bb df 37 ea bc
       0.0005644091 -0.040314432 -0.0069308514 -0.028591095
0003d0 7a a6 ed 3c 79 bf 99 bc ca 1c 16 bd 08 0d 49 3c
       0.029010046 -0.01876806 -0.03664855 0.012271173
0003e0 d4 d9 9f bc 73 5f 8f 3d db 60 d0 3c ed fa 14 3c
       -0.019513048 0.07000627 0.02543681 0.0090930285
0003f0 27 ef 66 bc 94 ba 89 bc fd 66 30 3b ab b1 e7 bc
       -0.014095104 -0.0168126 0.0026916855 -0.02828296

classifier.0.bias f4 [64]
000000 b0 ad 2d 3e a8 48 bd bd fb a4 f7 bc 36 95 9d bd
       0.16960788 -0.09242374 -0.030230036 -0.07694475
000010 7d fd 1a 3e 0d 65 a0 3c 09 0a 45 3d 58 10 76 3e
       0.1513576 0.019579435 0.048105273 0.24029672
000020 fc 99 28 3e cd d0 5f 3e 03 c5 ba 3d 17 98 54 3d
       0.1646499 0.21856995 0.09119608 0.051902857
000030 cd e9 31 bd eb c8 2e bd fa 73 09 bd 9e 33 cc 3b
       -0.04343586 -0.04267208 -0.03355787 0.006231739
000040 5e c1 13 3e cb ba 8e 3d c1 56 3a bc ec e3 97 3d
       0.14429232 0.06969222 -0.011373223 0.074165195
000050 18 ba ea 3d f8 92 9d be f5 3c 24 3d f3 7e 5e 3a
       0.11461276 -0.3077619 0.040097196 0.0008487545
000060 f7 2e e5 3d a8 75 9b bc e4 f6 02 3d 57 14 89 3d
       0.111905985 -0.018977001 0.031973734 0.06693333
000070 d0 fd 4f 3e 6c 7d 17 be 70 d0 2c 3c a5 27 e0 bd
       0.20311666 -0.14793938 0.010547742 -0.109450616
000080 88 4c 1a be ea d6 6e 3d 46 ed 96 3d f6 8e c0 3d
       -0.15068257 0.058310427 0.07369475 0.09402268
000090 bb 03 a0 bc 07 8b 87 3c 55 47 e7 bd f1 e3 9c 3e
       -0.019533029 0.016545786 -0.112929024 0.30642655
0000a0 1b 73 38 bc 41 a0 87 bd 9a 59 53 3c 23 23 28 3d
       -0.011257912 -0.06622363 0.012899781 0.041049134
0000b0 62 6d 89 3e f2 01 c7 3d f1 27 ae bc 5c 15 27 bd
       0.26841265 0.09717168 -0.02125928 -0.040791854
0000c0 0c d9 1f 3e 50 20 28 3d 41 5e 4c bc f9 55 8b 3d
       0.1561014 0.04104644 -0.012473644 0.06803507
0000d0 78 25 b4 3d b1 4f ae bc b8 76 e6 3c dc c1 66 3c
       0.08796209 -0.021278234 0.028132781 0.014084306
0000e0 e5 66 2e 3e 35 4a 93 bb 34 bf 47 3d 59 ce 02 3e
       0.17031439 -0.00449493 0.04876633 0.12774028
0000f0 67 6a 85 3d d8 b3 af 3d 70 a3 1d 3c 37 bf 34 3c
       0.06514435 0.08579224 0.009621486 0.011031917

classifier.2.weight f4 [10, 64]
000000 26 9c ac be 67 1c cf be 28 3f b9 3d cc da 4f be
       -0.33712882 -0.40451357 0.09045249 -0.20298308
000010 2c 21 1b 3e 48 95 c5 bc b6 00 77 3e 5c 88 44 3e
       0.15149373 -0.024119034 0.24121365 0.19192642
000020 ec 53 06 3e 23 40 e2 bd 34 37 42 3d 20 ee e7 3d
       0.13117951 -0.11047389 0.047415927 0.113247156
000030 79 46 2a be 84 69 28 3e 55 0b ee 3d 0a d2 3b bd
       -0.16628446 0.16446501 0.11623255 -0.045854606
000040 01 9a d5 bd 92 37 a1 3e 3e f1 36 3c 0a 16 e1 3d
       -0.104297645 0.3148771 0.011165915 0.10990532
000050 7f f0 8a 3e 29 27 ab 3d d0 07 60 3e d5 c6 73 be
       0.2713661 0.083570786 0.2187798 -0.23806317
000060 1a ea 1b be 7f 8f 80 be ea 4f 0b bd 18 0d 35 3e
       -0.15226021 -0.2510948 -0.03401176 0.17680776
000070 16 20 0e be 86 b2 3b 3e c6 ee 27 bd 5f 4e 8b 3d
       -0.13879427 0.1832982 -0.040999196 0.068020575
000080 11 27 39 3e 33 8b 8f bd 14 bf b0 3e a4 1e 9d be
       0.18081309 -0.07008972 0.3452078 -0.3068744
000090 5a 77 d3 3d 4a 87 c4 3b cb 30 26 3d e5 25 2f be
       0.10325499 0.005997573 0.040573876 -0.171043
0000a0 d7 b9 33 3e a6 d8 6f 3e 8b 95 8d be a9 02 0a 3e
       0.17551361 0.23422489 -0.27653155 0.13477577
0000b0 50 c6 02 be 9c 48 67 be 35 ce 5e 3e ee 6f 1b 3e
       -0.12770963 -0.22586292 0.21758349 0.15179417
0000c0 ca f6 c3 3e ec 7d 52 3e a7 56 b3 bd e0 41 e2 bd
       0.38274223 0.20555848 -0.08756762 -0.11047721
0000d0 1d 4c 95 3c e8 16 c3 3c b5 03 17 3d bb 73 2a 3c
       0.01822477 0.023814633 0.03686877 0.010403569
0000e0 28 e8 84 be 7a db 52 bd 17 99 a9 3d 35 c7 4f 3e
       -0.2595837 -0.05147884 0.08281153 0.20290835
0000f0 a5 97 93 3e 0a 09 2b be eb 4c 8e 3e 3a f3 44 bd
       0.28826633 -0.16702667 0.2779306 -0.04808352
000100 84 c3 3b be f5 f7 46 3e b4 58 de 3d 50 10 2c 3d
       -0.18336302 0.19430526 0.108567625 0.042007744
000110 c6 d4 0a be 93 e0 0c be 38 ca 21 be 02 87 1e be
       -0.13557729 -0.13757543 -0.15799797 -0.15481189
000120 21 87 4f be 44 69 65 3d 67 67 29 3d dd f3 47 be
       -0.20266391 0.056008592 0.041358378 -0.1952662
000130 55 08 c3 3d a8 5c 5d be 3e 3c 09 be 13 75 93 bd
       0.095230736 -0.21617377 -0.13401887 -0.072000645
000140 76 45 55 be fa 5b 5d be 45 36 f8 3d c9 99 24 3e
       -0.20827278 -0.21617118 0.12119726 0.1607429
000150 85 ec 59 be e4 a6 3b 3e 4e c3 0b 3e 15 aa 7f 3e
       -0.21281631 0.18325382 0.13648722 0.24967225
000160 39 49 78 3c 86 a6 82 be 19 72 b4 3d 76 45 2e be
       0.015154176 -0.25517672 0.08810825 -0.17018685
000170 4a 12 65 be fd 14 cd 3e 98 0d cb bd f9 13 a7 3e
       -0.22370258 0.40055075 -0.09914702 0.32632425
000180 57 80 e1 3e 06 81 99 be 41 28 9f be b5 2f 50 be
       0.44043228 -0.2998125 -0.310854 -0.20330699
000190 0b ea 42 3d c1 ad 58 be 70 5a e2 3e 66 a1 9e be
       0.047586482 -0.21160032 0.44209623 -0.30982512
0001a0 23 72 1a 3d 1b 08 4b 3e ad d0 a1 3e de 51 59 3e
       0.037706506 0.1982731 0.3160452 0.21222636
0001b0 c9 0a c5 bd 8e d2 3c be 2f b8 1c be 8a 17 41 3e
       -0.09621198 -0.18439695 -0.15304635 0.18856636
0001c0 2a e0 02 3e 49 0c 83 bd b2 ea 0f 3e bb cb 7c bd
       0.12780824 -0.063988276 0.14054373 -0.06171773
0001d0 42 65 27 be 6a 79 01 be bc 83 fd bd d2 c0 8f be
       -0.1634722 -0.12643972 -0.12378642 -0.28076798
0001e0 38 ea 9d 3d 29 ce 9d 3d d7 5f 51 3e 1d f8 64 bb
       0.07710689 0.077053376 0.20446716 -0.0034937926
0001f0 22 b3 7b be 9e 7c 88 be 09 f6 7d be 33 a9 67 3e
       -0.24580052 -0.26657575 -0.24800886 0.22623138
000200 4e ce 2f 3e 22 b9 37 3e 54 45 88 be 7b fa 00 be
       0.17168543 0.17941716 -0.26615393 -0.1259555
000210 17 f0 91 be b5 7b 89 bd d8 69 4b 3e 35 1c 65 3e
       -0.28503487 -0.06713048 0.19864595 0.22374041
000220 5a 4c 7f 3e b0 81 bf 3c b3 69 2b 3e 7c 77 cb 3e
       0.2493147 0.02337727 0.1673954 0.39739597
000230 6e a5 41 3e c0 a0 29 be c0 6d 4e 3e 07 ad 10 3e
       0.18910763 -0.16565228 0.20159054 0.14128505
000240 81 e4 9e be 05 55 a9 3d bd 77 9c 3a ca 0d 2c 3e
       -0.3103371 0.08268169 0.001193754 0.16802135
000250 3c b7 ea 3e a9 2d 26 3d 30 db 5d be 91 f1 b9 bd
       0.45842922 0.04057089 -0.21665645 -0.09079278
000260 fb 77 d3 3d 62 dd 8f 3e b8 a8 7a be 9a 7b 0b bd
       0.10325619 0.2809859 -0.24478424 -0.034053423
000270 f6 c8 d1 3e 30 68 06 be 43 c7 87 bd 16 e2 8d be
       0.40973634 -0.13125682 -0.06629803 -0.27711552
000280 0c 40 e0 bd 65 6b 05 3e 8b 9a 4b 3e 3d b3 e9 bd
       -0.10949716 0.13029249 0.19883172 -0.1141114
000290 0e 7e 38 3c 52 a3 1e be 73 23 0e be be 16 fe 3d
       0.0112605225 -0.1549199 -0.1388071 0.124066815
0002a0 2b 1b 5e 3e 6d 76 8e 3e 87 6f 55 3b f3 ba 05 3e
       0.21690051 0.27824727 0.0032567696 0.13059597
0002b0 64 14 3d 3e 1f 47 80 3e de f2 ae 3c 6e e2 bc 3d
       0.1846481 0.2505426 0.021356042 0.092228755
0002c0 06 53 b0 3d 92 1f 6b 3e 27 e0 5b be 0f 5b 9e bd
       0.086095855 0.22961262 -0.21472226 -0.07732212
0002d0 49 29 38 3e 6c 69 41 be 50 08 4c be 90 94 a1 bd
       0.17984499 -0.18887872 -0.19925046 -0.07889664
0002e0 c7 c7 7b be 03 e4 5c 3d 51 40 49 be b9 4f bb be
       -0.24587928 0.053928386 -0.19653441 -0.3658426
0002f0 17 f8 b9 3c ae 9f 4e 3e 3e 48 16 3e df 05 62 be
       0.022701306 0.201781 0.14675996 -0.22072552
000300 48 66 c2 3d 17 ca 27 3d f4 08 a6 be 15 f3 4f 3a
       0.09492165 0.040964212 -0.32428706 0.00079326454
000310 a8 ea 11 bd 69 00 81 3e 29 99 94 be d8 f8 84 be
       -0.035624176 0.25195625 -0.29023102 -0.25971103
000320 7b 77 1b be 18 4d 5d be 85 00 57 3e b6 bb 71 3d
       -0.15182297 -0.2161144 0.20996292 0.059016906
000330 f9 2d 62 be 25 95 7c bb 25 81 da bd e3 b5 25 3e
       -0.2208785 -0.0038541046 -0.106691636 0.16182666
000340 50 5c b3 3d 15 7d ad 3c 3d 4c 9f bd ad 42 a1 3d
       0.087578416 0.021177808 -0.07778213 0.078740455
000350 0c 04 41 3c 74 b0 6d 3e 9c 9b 2b 3e 3e 4b 59 3e
       0.01178075 0.23211843 0.16758579 0.21220109
000360 c8 29 2c 3e 51 13 99 3d 3e 94 34 bd f8 a8 50 3d
       0.16812813 0.074743874 -0.044086687 0.05094239
000370 10 30 80 ba 9a bb 89 be 3c c2 29 be 7a e2 0d be
       -0.0009779949 -0.2690094 -0.16578001 -0.13855925
000380 51 42 74 bd c1 bd 79 3e 00 65 17 be 90 17 30 3e
       -0.059633557 0.24388792 -0.14784622 0.17196488
000390 98 df 98 3e df da 13 3d 38 b3 b1 be 3d d4 71 3e
       0.29858088 0.036097404 -0.34707046 0.23616119
0003a0 ab c8 02 be 35 0d 35 be 14 39 ca 3d 71 90 f1 bc
       -0.12771861 -0.1768082 0.09874168 -0.02948782
0003b0 65 21 18 3e d5 e2 78 bd 9f 5d 48 3d a5 9a 89 be
       0.14856489 -0.0607632 0.04891741 -0.26875797
0003c0 7b 32 aa b8 62 fe e5 3d 6b 39 00 3d 2b a4 55 3e
       -8.1156344e-05 0.1123016 0.031304758 0.20863406
0003d0 44 4d a2 3d 87 06 4b be 42 df 52 3e 2e 1c 98 3e
       0.079248935 -0.19826709 0.20592979 0.29709
0003e0 41 14 57 bd dd de 0d be 1e 22 b4 be ac 9e e5 3d
       -0.05250955 -0.13854547 -0.3518228 0.11211905
0003f0 02 11 65 3e 48 22 41 3b 80 f1 18 bc 4e c7 93 3e
       0.22369769 0.0029469896 -0.009334922 0.28862995

classifier.2.bias f4 [10]
000000 4e ca 38 be 05 08 12 bf 5f 28 09 3e 72 97 22 3e
       -0.18045923 -0.57043487 0.13394307 0.15878084
000010 00 4f 26 3f b8 bd 04 bd 46 e9 3a bd c8 85 ab be
       0.64964294 -0.032407492 -0.045632623 -0.33500504
000020 29 dc b9 3e 0f 13 b7 be
       0.3630078 -0.35756728
