assignment3/checkpoints/best.ckpt (torch_old, 556998 bytes, 8 tensors)

feature_extractor.0.weight f4 [8, 3, 5, 5]
0	0xbd1651f2	-0.036699243
1	0x3d084ee2	0.033278354
2	0xbe2ae0cc	-0.16687316
3	0xbe02fa77	-0.12790857
4	0xbdd87c25	-0.10570554
5	0xbe1fcf79	-0.15606488
6	0xbe3edb88	-0.18638432
7	0xbe1bbf5d	-0.15209718
8	0xbe579a45	-0.21054943
9	0xbdf774dd	-0.12082837
10	0xbec76f1f	-0.38951966
11	0xbeddc4f2	-0.4331432
12	0xbf1c22eb	-0.6099078
13	0xbef79284	-0.4835397
14	0xbea9ea21	-0.3318644
15	0xbd30d0dc	-0.043167934
16	0xbd41cfae	-0.0473172
17	0xbe25bb50	-0.16184735
18	0xbe875d79	-0.264385
19	0xbe258e5b	-0.16167586
20	0x3e5cf22c	0.21576756
21	0x3e994a69	0.29939583
22	0x3d5c7a9b	0.053827863
23	0x3e3c5c58	0.18394601
24	0x3de76a06	0.11299519
25	0x3d9f49e4	0.077777654
26	0x3e931041	0.28723338
27	0x3dbeaadd	0.09309933
28	0x3de8991b	0.113573276
29	0x3aeeebea	0.0018228267
30	0xbd6cbbec	-0.057796404
31	0x3e5018bb	0.20321934
32	0x3d03e0f4	0.032196954
33	0x3d8337f5	0.06407157
34	0xbd70749c	-0.058704957
35	0xbe7c4a67	-0.24637757
36	0xbe24c2fa	-0.16090003
37	0xbc0faf22	-0.008769782
38	0x3bd266a2	0.006420926
39	0xbc26e720	-0.01018694
40	0x3cdbed92	0.02684668
41	0x3c4ccd72	0.012500154
42	0x3d20548a	0.039143123
43	0xbd90d768	-0.070723355
44	0xbdd185d0	-0.10230601
45	0xbd33bda0	-0.043882012
46	0x3e637cd4	0.22215587
47	0x3e43d336	0.1912354
48	0x3d7095fb	0.058736783
49	0x3c99ac19	0.01875882
50	0x3daa3b9c	0.08312151
51	0x3e9cf779	0.30657557
52	0x3e8ef82f	0.27923724
53	0x3e750467	0.2392746
54	0x3dd60621	0.10450388
55	0xbd793c01	-0.06084824
56	0x3e47e171	0.19519593
57	0x3ddc05fc	0.10743329
58	0x3e089971	0.13339783
59	0x3cedc021	0.029022278
60	0xb9f0f2d2	-0.00045957282
61	0x3da26f41	0.07931376
62	0xbcbe346b	-0.023218354
63	0x3e1b07c2	0.15139678
64	0x3df59bad	0.119925834
65	0x3d1f4bae	0.038890533
66	0x3e1f961a	0.15584603
67	0x3e19959c	0.14998478
68	0x3e60794d	0.21921273
69	0x3e1cf697	0.15328442
70	0xbe2c58fe	-0.16830823
71	0x3d7bacf5	0.06144424
72	0x3e1c9f50	0.15295148
73	0x3e43fc66	0.19139251
74	0x3d89216e	0.06695829
75	0x3ebd3fb4	0.36962664
76	0x3ea0aad3	0.3138033
77	0xbe9b77ec	-0.3036493
78	0xbe7cf9e2	-0.24704698
79	0x3c628b56	0.013827166
80	0x3e07e8f9	0.13272466
81	0xbe2892aa	-0.16462198
82	0xbef00c1b	-0.46884236
83	0xbde0aba3	-0.10970237
84	0x3eac40e2	0.33643252
85	0xbe20cccc	-0.15703124
86	0xbef1dfc9	-0.47241047
87	0xbd28968e	-0.041159205
88	0x3f165085	0.58716613
89	0x3d8904ec	0.06690392
90	0xbe28e0b1	-0.16491963
91	0xbc34764d	-0.011014533
92	0x3eeeb2ce	0.46620792
93	0x3e7adf8a	0.24499336
94	0xbedc114b	-0.42981943
95	0xbcee8b35	-0.029119113
96	0x3e3ba5b6	0.18324932
97	0x3e1c7c2e	0.15281746
98	0xbe652868	-0.22378695
99	0xbe156861	-0.14590599
100	0x3edc13db	0.429839
101	0x3ec45090	0.38342714
102	0xbe857760	-0.26067638
103	0xbe9ab61f	-0.30217072
104	0xbc8058c5	-0.015667329
105	0x3e8ae669	0.27128914
106	0xbeacc566	-0.33744353
107	0xbf2824e3	-0.65681285
108	0xbd296af4	-0.041361764
109	0x3ea12e21	0.31480506
110	0xbe1cd212	-0.1531451
111	0xbeb27820	-0.34857273
112	0xbd63e928	-0.055642277
113	0x3f19f2a4	0.60135865
114	0x3e3f7156	0.18695578
115	0xbe8a5d54	-0.2702433
116	0xbd804bf4	-0.06264487
117	0x3ec2d24d	0.38051072
118	0x3e2970f5	0.16546996
119	0xbe9f7290	-0.31142092
120	0x3db07cca	0.086175516
121	0x3dda6d51	0.10665382
122	0x3ca1fae7	0.01977296
123	0xbe222edb	-0.15838186
124	0xbe61fcd2	-0.220691
125	0x3e1848b3	0.14871483
126	0x3e7bdf36	0.24596867
127	0xbe5b1a42	-0.21396735
128	0xbe8a52ce	-0.270163
129	0xbc09c391	-0.008408443
130	0x3e3bc99c	0.18338627
131	0xbe4d5601	-0.20052339
132	0xbf13d4e4	-0.5774672
133	0xbd003c11	-0.031307284
134	0x3eaf2477	0.34207508
135	0xbe1e325b	-0.15448897
136	0xbeca3ac9	-0.39497975
137	0x3c284ea9	0.01027266
138	0x3ef8bf20	0.48583317
139	0x3e3b8eae	0.18316147
140	0xbdb60d8b	-0.08889302
141	0x3d079ab9	0.03310654
142	0x3ee783b8	0.4521768
143	0x3dfbc843	0.12294056
144	0xbec3cfc9	-0.38244465
145	0x3c747882	0.014921309
146	0x3e63d99e	0.22250983
147	0x3de8aa37	0.11360591
148	0xbe3610f8	-0.1777991
149	0xbd3df482	-0.04637576
150	0x3b995c98	0.0046802275
151	0x3c606cce	0.013697816
152	0x3e7cf6ae	0.24703476
153	0x3ecae125	0.39624897
154	0x3e96a48f	0.29422423
155	0xbd9949b4	-0.07484761
156	0xbd7a8be2	-0.06116856
157	0xbe33be87	-0.17553149
158	0x3e822b92	0.25423867
159	0x3ec62b38	0.38704848
160	0x3e104e15	0.14092286
161	0xbe200d63	-0.15630107
162	0xbf18d822	-0.5970479
163	0xbeb67fbd	-0.35644332
164	0x3e581d63	0.2110496
165	0x3e8ae787	0.27129766
166	0x3dade78c	0.0849143
167	0xbe79258d	-0.2433073
168	0xbf0f9bff	-0.56097406
169	0xbdd501e0	-0.10400748
170	0x3e27140c	0.16316241
171	0x3dc98086	0.09838967
172	0x3e1b4156	0.15161642
173	0xbe05c453	-0.13063173
174	0xbe611b29	-0.21983017
175	0x3d9c469a	0.07630654
176	0xbd9ca5a7	-0.07648783
177	0xbd393bb6	-0.04522296
178	0x3e228ccc	0.15874022
179	0xbd9a81c2	-0.075442806
180	0x3c0e858d	0.008698833
181	0xbe77e45d	-0.24208207
182	0xbe2a3887	-0.16623126
183	0x3de4470f	0.11146366
184	0x3ea20c35	0.31649938
185	0x3e619653	0.2203
186	0xbe2a80da	-0.16650715
187	0xbf10580a	-0.56384337
188	0xbee12767	-0.43975374
189	0x3e4d7829	0.20065369
190	0x3ecf5e4a	0.40501624
191	0x3e870edb	0.2637852
192	0xbea598cc	-0.32343137
193	0xbee95ca9	-0.45578507
194	0xbe4821d4	-0.19544154
195	0x3d5b8978	0.053597897
196	0x3e194a42	0.14969733
197	0x3e316b33	0.1732605
198	0xbe3f9ffc	-0.18713373
199	0xbd8a7a69	-0.06761629
200	0xbbfabb4e	-0.007651723
201	0x3d24257d	0.040074814
202	0xbd2c2d36	-0.042035304
203	0xbc90c111	-0.017670186
204	0xbdb0064c	-0.08594951
205	0x3d88595c	0.06657669
206	0xbe44764e	-0.19185755
207	0xbd18a869	-0.037269983
208	0x3e3d13aa	0.18464532
209	0x3e7f051b	0.24904291
210	0x3e12fb81	0.14353754
211	0xbdbc1268	-0.09183198
212	0xbeb9b0d5	-0.36267725
213	0xbe709938	-0.23495948
214	0x3e374e17	0.17900883
215	0x3e8a2f9f	0.26989457
216	0x3dfea127	0.12433081
217	0xbe3e4e2d	-0.18584509
218	0xbe86aade	-0.26302236
219	0xbe252966	-0.16129074
220	0x3da00545	0.07813505
221	0x3eb4e380	0.3532982
222	0x3e80139f	0.2501497
223	0xbd8b56eb	-0.06803688
224	0xbe20e71d	-0.15713163
225	0x3defcff0	0.11709583
226	0xbdf142e4	-0.117803365
227	0x3d363695	0.044485647
228	0x3aa2e483	0.0012427721
229	0xbd81ff69	-0.06347544
230	0xbe189d85	-0.14903839
231	0xbd0c657c	-0.03427647
232	0x3e35873b	0.17727368
233	0x3e6d9a86	0.23203477
234	0x3a48a372	0.000765375
235	0xbeb9dd5f	-0.36301705
236	0xbe22769a	-0.15865555
237	0x3e5bd9d5	0.21469815
238	0x3e5ad1cf	0.21369098
239	0x3cda39b1	0.026638838
240	0xbe6f8588	-0.23390782
241	0xbe02013b	-0.12695782
242	0x3e19fc0e	0.15037557
243	0x3e342627	0.17592679
244	0x3d5712be	0.05250811
245	0xbe23fc30	-0.1601417
246	0x3d0ba73c	0.034095034
247	0xbce36c0d	-0.027761484
248	0x3cae5de2	0.021285001
249	0x3c56b908	0.013105638
250	0xbdcabbf3	-0.0989913
251	0xbdbdcd93	-0.09267726
252	0x3e3d6d61	0.18498756
253	0x3cc07943	0.023495322
254	0xbd8d583a	-0.069015935
255	0xbe8816fc	-0.26580036

feature_extractor.0.bias f4 [8]
0	0x3e77788c	0.24167079
1	0xbe89a5e1	-0.26884368
2	0xbf44bdcd	-0.76852113
3	0xbe44d251	-0.19220854
4	0xbc950f89	-0.018195884
5	0x3e0b4af3	0.1360281
6	0xbe5bf1a1	-0.21478893
7	0xbecfdb25	-0.40596882

feature_extractor.3.weight f4 [32, 8, 5, 5]
0	0x3d589d4a	0.052884378
1	0x3d9386cd	0.072034456
2	0x3d78a453	0.060703587
3	0xbd569b06	-0.052393936
4	0x3b9f0947	0.004853401
5	0xbb842cc9	-0.004033659
6	0x3da95bca	0.082694605
7	0x3e16cd30	0.1472671
8	0x3d4f1930	0.05056113
9	0xbd9158c3	-0.07097008
10	0x3d4e9202	0.050432213
11	0x3d4a1acb	0.049341958
12	0x3c1eae72	0.009685146
13	0x3ccb7479	0.024835812
14	0xbda99e10	-0.08282101
15	0xbe48f552	-0.19624832
16	0xbe064a2d	-0.13114233
17	0xbda7bae6	-0.08189945
18	0x3da197d0	0.07890284
19	0xbd219d0d	-0.039456416
20	0xbe4886d6	-0.19582686
21	0xbd2f0d55	-0.042737324
22	0x3d5aede5	0.05344953
23	0x3b67ae05	0.0035351526
24	0xbd9750fa	-0.07388492
25	0xbd8a169a	-0.06742592
26	0xbcd8c874	-0.026462771
27	0xbd6dc9e2	-0.05805386
28	0xbdd1c895	-0.10243336
29	0xbdd783ee	-0.105232105
30	0xba001254	-0.00048855436
31	0x3e095b87	0.13413821
32	0xbda2a99f	-0.07942509
33	0xbcd29d93	-0.025709903
34	0xbb875145	-0.004129561
35	0x3d8c62af	0.0685476
36	0xbcfec3c5	-0.03109921
37	0x3cd9f325	0.026605198
38	0xbd71ed39	-0.059064124
39	0x3d561bde	0.05227267
40	0xbcb343b7	-0.021882875
41	0xbda46cd1	-0.080285676
42	0xbcfef156	-0.031120937
43	0x3c04f37a	0.00811469
44	0x3e1b4f34	0.15166932
45	0xbe2e0d16	-0.1699718
46	0xbdbd43fc	-0.092414826
47	0x3d3017bd	0.04299139
48	0x3df577df	0.11985754
49	0x3e23e886	0.1600667
50	0x3c460b33	0.012087631
51	0x3ca00c28	0.019537047
52	0xbc13caf1	-0.009020553
53	0x3d0be6ab	0.03415553
54	0x3d89e270	0.06732643
55	0xbdc124a5	-0.094308175
56	0xbdab9195	-0.08377377
57	0x3b6cd0f5	0.003613529
58	0x3a1d1f05	0.0005993697
59	0x3df76e24	0.120815545
60	0xbd50e081	-0.050995354
61	0x3dbc1c50	0.09185088
62	0xbd44e41e	-0.048069112
63	0x3b907835	0.004408861
64	0x3cee4918	0.029087588
65	0x3da5072b	0.08058008
66	0x3d93a6c7	0.07209545
67	0x3c370ef6	0.011173001
68	0xbded64f6	-0.115915224
69	0xbc32109b	-0.010868217
70	0x3e018780	0.12649345
71	0x3b10a86a	0.002207304
72	0xbb22ceb4	-0.0024842443
73	0xbdf4f202	-0.11960222
74	0xbc8c1169	-0.017098146
75	0x3cb562c8	0.02214183
76	0x3da977b4	0.08274785
77	0x3d8d5d80	0.06902599
78	0xbdad9005	-0.08474735
79	0xbdcb33a7	-0.09921961
80	0x3d9ffb39	0.07811589
81	0x3e38d1d3	0.18048792
82	0x3da743a3	0.081671976
83	0xbd6401b4	-0.055665687
84	0x3ceb9ebd	0.028762216
85	0x3e1ea008	0.15490735
86	0x3dc40a82	0.09572317
87	0xbdb6b4b8	-0.08921188
88	0x3cbeecc1	0.023306252
89	0xbd332e85	-0.043745536
90	0x3d69c265	0.057070155
91	0xbd52f7a3	-0.051505696
92	0xbdbe882e	-0.09303318
93	0x3cd5b3f0	0.026086777
94	0xbc63dce7	-0.013907648
95	0xbdbae698	-0.091260135
96	0xbe3c66b6	-0.18398556
97	0x3ac961f0	0.0015364271
98	0x3dc59b74	0.09648791
99	0x3d600e11	0.054700915
100	0xbc9377e5	-0.018001506
101	0x3ccd2fe9	0.02504726
102	0xb949a124	-0.00019228883
103	0xbd38c28a	-0.045107402
104	0xbdf2d596	-0.118571445
105	0xbdf06fc5	-0.11740068
106	0x3dac8b95	0.08425061
107	0x3ce20507	0.027590288
108	0xba6116b6	-0.0008586453
109	0xbbcbca10	-0.006219156
110	0x3d2ed60c	0.0426846
111	0x3dceed77	0.101038866
112	0x3df5c576	0.12000553
113	0xbcda28db	-0.02663081
114	0xbbdb8556	-0.0066992445
115	0xbd799d4a	-0.06094102
116	0xbd76c616	-0.060247503
117	0xbd132293	-0.035921644
118	0x3d3f9e97	0.046782102
119	0xbd5ad370	-0.0534243
120	0x3bfd5f32	0.0077322954
121	0xbe258661	-0.16164543
122	0xbde3e380	-0.111273766
123	0x3d3d4f86	0.046218418
124	0x3bb45c71	0.005504184
125	0xbc1b7658	-0.009488665
126	0xbe0f72c4	-0.14008623
127	0xbbc5ac97	-0.006032537
128	0xbdbb2338	-0.09137577
129	0xbe0a5278	-0.13508022
130	0xbd864546	-0.065561816
131	0xbe025084	-0.12726027
132	0xbdc2cef7	-0.09512132
133	0xbd92a789	-0.07160861
134	0xbc27f92f	-0.010252281
135	0xbd871160	-0.06595111
136	0xbd84fb7f	-0.064932816
137	0x3c90df90	0.017684728
138	0xbc966b31	-0.01836166
139	0xbdba9e8a	-0.0911227
140	0xbce81e3d	-0.028334731
141	0xbd8ee6d2	-0.06977619
142	0xbdf53d2b	-0.119745575
143	0xbd043c36	-0.032283984
144	0x3d83b359	0.06430692
145	0x3c9d5f48	0.019210473
146	0xbdb76c14	-0.08956161
147	0xbd05141f	-0.032489892
148	0x3bfcbc36	0.007712866
149	0x3d97413f	0.073854916
150	0x3cd5b870	0.026088923
151	0xbccbff31	-0.024901958
152	0xbccb2c93	-0.024801528
153	0x3c4dbc9c	0.012557175
154	0xbd8e9655	-0.06962267
155	0x3de5021a	0.111820415
156	0x3c64c981	0.013964058
157	0xbe09cc0b	-0.13456742
158	0xbda57dd8	-0.080806434
159	0x3cf09e0f	0.029372243
160	0xbcdd2375	-0.026994446
161	0xbcf50644	-0.029910214
162	0xbcfdf2d1	-0.030999573
163	0xbdc69ee3	-0.09698274
164	0x3d30b2ae	0.043139152
165	0xbb7cbd93	-0.0038565143
166	0x3ad868df	0.0016510746
167	0xbde58c5d	-0.11208413
168	0x3cbe35d7	0.023219032
169	0xbd51f75e	-0.0512613
170	0xbc008b5e	-0.007845728
171	0xbe07214d	-0.13196297
172	0xbe0e8ae2	-0.13920167
173	0xbc71fc29	-0.014769592
174	0xbae67a59	-0.001758407
175	0xbbea8766	-0.007157254
176	0xbdac4cf6	-0.08413117
177	0xbe014dec	-0.12627381
178	0xbe0b2ea3	-0.13592009
179	0xbe274b95	-0.16337426
180	0x3c3ae10c	0.011406194
181	0x3c3e4aad	0.011614484
182	0xbdaff9a2	-0.085925356
183	0xbd6afe47	-0.057371404
184	0xbc3562a5	-0.011070882
185	0x3c8e6c6e	0.017385688
186	0xbd79fe3b	-0.06103347
187	0xbdd268f1	-0.10273922
188	0xbdfdc6c8	-0.1239143
189	0xbda3766a	-0.0798157
190	0xbd428726	-0.04749217
191	0xbdc9170a	-0.098188475
192	0x3d077f01	0.033080105
193	0x3d96202d	0.07330356
194	0x3e5fb7b7	0.21847425
195	0xbe01ce38	-0.12676322
196	0xbb7706af	-0.0037693193
197	0x3e2a2708	0.16616452
198	0x3e40f45a	0.18843213
199	0x3bd9a79c	0.006642295
200	0x3d209fc5	0.039214868
201	0xbd0dd25d	-0.034624446
202	0xbdb71b96	-0.089408085
203	0xbd730b41	-0.059336904
204	0xbd0eda0f	-0.034875926
205	0xbe1fea81	-0.156168
206	0xbe03614d	-0.12830086
207	0xbd4661ef	-0.04843324
208	0xba8d424b	-0.0010777203
209	0x3e2ecefd	0.17071147
210	0xbde50b3c	-0.111837834
211	0xbcf8efc6	-0.03038777
212	0x3de9bdc0	0.11413145
213	0x3d3c0afb	0.04590891
214	0x3c85c606	0.016329776
215	0xbdafb3c6	-0.08579211
216	0xbd7dddb0	-0.061978996
217	0x3d0cdea2	0.034392007
218	0x3e00e023	0.12585501
219	0x3dc72a24	0.097248346
220	0xbc9f3b13	-0.019437348
221	0xbcd12a0d	-0.025532747
222	0x3dae5abf	0.08513402
223	0x3dfc2d73	0.12313356
224	0x3df87443	0.1213155
225	0xbcac7032	-0.021049593
226	0xbb01a825	-0.001978406
227	0xbb0b9e6a	-0.002130414
228	0xbdba04b1	-0.09082926
229	0xbcfe8968	-0.03107138
230	0xbc41164d	-0.011785102
231	0x3d601db2	0.05471582
232	0xbdce3db1	-0.100703605
233	0x3cc82f80	0.024436712
234	0xbd73735d	-0.05943619
235	0xbd00a5c3	-0.031408083
236	0x3d4252e8	0.047442347
237	0x3d48cf1e	0.049025647
238	0x3df540b4	0.11975232
239	0xbd1d6912	-0.03843028
240	0xbc058bc4	-0.0081509985
241	0xbd32bb0d	-0.043635417
242	0xbca61f28	-0.020278528
243	0xbb11b8eb	-0.0022235464
244	0xbdc670b9	-0.09689469
245	0xbda59e25	-0.08086804
246	0xbbe36b97	-0.006940316
247	0x3b3ee62b	0.002912889
248	0x3d38eaf8	0.04514596
249	0xbd859c2f	-0.0652393
250	0xbe35757b	-0.17720596
251	0xbe39fb5f	-0.18162297
252	0x3d30103a	0.042984225
253	0x3e792024	0.24328667
254	0x3d4dba79	0.050226662
255	0xbd9d4832	-0.07679786

feature_extractor.3.bias f4 [32]
0	0xbdfebbea	-0.124381855
1	0xbeabac60	-0.3352995
2	0x3e223b2e	0.15842888
3	0x3e54fbc4	0.20799166
4	0xbe497408	-0.19673169
5	0xbe08d6e1	-0.1336322
6	0x3d69d132	0.05708427
7	0xbd4f24e8	-0.050572306
8	0x3e1b1d39	0.15147866
9	0xbdd4afdc	-0.10385105
10	0x3e3e786c	0.18600625
11	0x3eb70cf2	0.35752064
12	0x3ed22d0e	0.4105
13	0x3f018da7	0.5060677
14	0x3e97493d	0.29548064
15	0xbe625239	-0.22101678
16	0xbc1ebfdc	-0.0096892975
17	0xbcefbcdd	-0.029264862
18	0x3ebfe508	0.37479424
19	0x3e17a82d	0.14810248
20	0xbe4852cf	-0.19562839
21	0xbe092209	-0.1339189
22	0x3d817387	0.06320863
23	0x3e1c843e	0.15284821
24	0xbd855ab1	-0.06511439
25	0x3f44ba8d	0.76847154
26	0xbecc51b5	-0.39906088
27	0xbe497005	-0.19671638
28	0x3f1eec2c	0.6207912
29	0xbd8eda14	-0.06975189
30	0xbdcec8ae	-0.1009687
31	0xbe8fd7ba	-0.28094274

classifier.0.weight f4 [64, 2048]
0	0x3b00fac9	0.001968073
1	0x3c97e0d5	0.018539825
2	0x3d4c1e39	0.04983351
3	0xbccd6a13	-0.025074994
4	0x3d3201ee	0.04345887
5	0xbb8962d1	-0.004192688
6	0xbcd42946	-0.025898587
7	0xbabb8c7b	-0.0014308834
8	0xbd0b29ce	-0.033975415
9	0x3c7aea48	0.015314646
10	0x3c888f77	0.016669972
11	0xbca9cb31	-0.020726772
12	0xbc963dfb	-0.018340101
13	0xbd1bb49b	-0.038014036
14	0xbc48cfad	-0.012256545
15	0xbc68d57b	-0.014211054
16	0x3c178d35	0.009249975
17	0x3c3552a4	0.011067066
18	0xb9da05af	-0.00041584435
19	0xba4f8532	-0.0007916271
20	0xbc34b532	-0.011029528
21	0xbcbb5ea1	-0.022872271
22	0xbd01470c	-0.031561896
23	0x3c21d097	0.009876392
24	0x3bec3319	0.0072082398
25	0xbc2f5306	-0.010700947
26	0x3c4f5022	0.0126533825
27	0x3d1b6b35	0.037944037
28	0x3d5e0fd4	0.054214314
29	0x3cd8a1c6	0.026444327
30	0xbc9f899b	-0.019474795
31	0x3d768ba2	0.060191758
32	0xbcb76e46	-0.02239145
33	0xbc76c1f2	-0.015060889
34	0x3c8fcdc1	0.017554166
35	0x3cb8e67c	0.022570841
36	0x3cbf720e	0.023369815
37	0x3d1d7b57	0.038447704
38	0xbc391cec	-0.011298399
39	0xbc9dd128	-0.019264773
40	0x3d15506c	0.03645365
41	0xbaac3d45	-0.0013140818
42	0xbcbecb90	-0.023290426
43	0xbbd5797c	-0.006514726
44	0x3d4d1a9f	0.050074216
45	0x3d1393bd	0.036029566
46	0xbc99f44a	-0.018793244
47	0x3c36c3bc	0.011155065
48	0xbcb64ab9	-0.022252427
49	0x3b1ca932	0.002390456
50	0x3c25d7bd	0.010122237
51	0xbc5ff841	-0.013670028
52	0xb8c02dbc	-9.163792e-05
53	0x3c059485	0.008153086
54	0xbca8cb66	-0.0206048
55	0xbd0cbe2a	-0.034361042
56	0xbcab39e0	-0.02090162
57	0xbc03bcc0	-0.008040607
58	0x3bea9e40	0.007159978
59	0xbc2807f0	-0.010255799
60	0xbd30ffd1	-0.043212716
61	0xbce322eb	-0.027726611
62	0xbb6c0cb7	-0.003601832
63	0x3ba08019	0.004898083
64	0xbc033ea5	-0.008010541
65	0xbcb2abb4	-0.02181039
66	0xbbf46d72	-0.007459336
67	0xbbc52adb	-0.0060170717
68	0xbd0f3f8a	-0.034972705
69	0xbc2bc47f	-0.01048386
70	0x3cfa61e2	0.030564252
71	0x3bee1be1	0.007266507
72	0x3c3cc207	0.011520869
73	0x3cb885b8	0.0225247
74	0x3c8405e7	0.016116096
75	0xbc5507f6	-0.013002386
76	0xbcfc8b0a	-0.030828018
77	0xbd6baaf8	-0.057536095
78	0xbc3c4237	-0.011490396
79	0x3c83c3dc	0.016084604
80	0xb9ebc261	-0.00044967516
81	0x3c29614a	0.010338137
82	0xbd364260	-0.044496894
83	0xbaffa0d9	-0.0019502892
84	0xbd51c62d	-0.051214386
85	0xbd679b89	-0.056544814
86	0xbd09dc73	-0.033657502
87	0x3cd68d1e	0.026190337
88	0xbb3ce4ac	-0.0028822822
89	0xbb327acd	-0.002723384
90	0xbba01b90	-0.004886098
91	0xbced72e3	-0.028985446
92	0xbd89f27a	-0.06735702
93	0x3c9a0cea	0.018804986
94	0xba3322c9	-0.00068334915
95	0x3d0326a4	0.032019272
96	0x3c30b409	0.010785111
97	0x3b85ceba	0.0040834816
98	0xbc235124	-0.009968076
99	0xbbef5157	-0.0073033976
100	0xbccf1e13	-0.025282895
101	0x3cd599f8	0.026074395
102	0x3cf1103a	0.029426683
103	0x3d33c6fd	0.043890942
104	0x3d2c942f	0.042133506
105	0xbca6a99e	-0.020344552
106	0x3cb766b1	0.022387834
107	0x3c33ddf3	0.01097821
108	0x3c05989a	0.008154059
109	0x3d5b1548	0.053487092
110	0x3d79c73f	0.06098103
111	0x3c8dc4ce	0.017305758
112	0x3cb3d31f	0.021951256
113	0x3c804ab4	0.015660621
114	0x3cbb774b	0.022884032
115	0x3c8ee95e	0.017445263
116	0x3b696752	0.0035614562
117	0x3ccc39cc	0.024929903
118	0x3bef148e	0.0072961515
119	0x3d1433d1	0.03618223
120	0xbc9f6eb1	-0.019461961
121	0x3c4dc60d	0.012559426
122	0xbab534c9	-0.0013824935
123	0xbd3353b5	-0.043781
124	0x3cd080b2	0.025451992
125	0x3c10b6af	0.008832618
126	0xbc9945e9	-0.018710094
127	0x3ce8f66f	0.028437821
128	0xbb2c99c3	-0.0026336766
129	0x3d53c463	0.05170096
130	0x3cb88053	0.022522127
131	0x3d34862c	0.04407327
132	0x3d799bd1	0.060939614
133	0x3c805078	0.01566337
134	0x3c8e77ea	0.017391164
135	0x3daa5dad	0.083186485
136	0xbd18b9af	-0.037286457
137	0xbb6a5ff4	-0.003576276
138	0xbd038c8b	-0.032116454
139	0xbac2b821	-0.00148559
140	0xba87e0fe	-0.0010366736
141	0xbca4120a	-0.020028133
142	0xbcc93bb7	-0.024564607
143	0x3cf20265	0.029542157
144	0xbd454298	-0.048159212
145	0x3b0eabca	0.0021769875
146	0x3cc1f310	0.023675472
147	0xb9ba8eef	-0.00035583178
148	0xbc17847f	-0.009247898
149	0xba951eb8	-0.0011376953
150	0xbb3179f8	-0.0027080756
151	0x3d03af9d	0.0321499
152	0x3c817270	0.015801638
153	0x3c0adcd0	0.008475497
154	0x3cadef42	0.021232251
155	0x3d45d688	0.048300296
156	0x3b1aa00d	0.0023593933
157	0x3a33772c	0.0006846066
158	0xbb543ecb	-0.003238606
159	0x3ce0d61d	0.027445847
160	0x3c830341	0.015992763
161	0x3c8f98c9	0.017528908
162	0x3cecc0a9	0.028900461
163	0x3cc7fc59	0.02441232
164	0x3b9592d6	0.0045646233
165	0xbbd38564	-0.0064551104
166	0xbc70c439	-0.014695221
167	0x3d077d60	0.03307855
168	0xba902022	-0.0010995904
169	0xbbe1c2db	-0.0068896837
170	0xbc55de9b	-0.013053562
171	0x3c9a474d	0.018832827
172	0x3c538364	0.012909744
173	0x3d39c87a	0.045357205
174	0xbc3c9704	-0.011510614
175	0x3d1cbec3	0.038267862
176	0xbc92bb7a	-0.017911661
177	0x3c8ad075	0.016945103
178	0x3d0b1bca	0.03396205
179	0x3d10ba61	0.035333995
180	0xbbc58bed	-0.0060286433
181	0x3ca6ab97	0.020345492
182	0xbbcf60dc	-0.006328685
183	0x3ca871ec	0.020562135
184	0xbb589902	-0.0033050184
185	0xbda2c422	-0.079475656
186	0xbd465a15	-0.048425753
187	0xbce807eb	-0.028324088
188	0xbb6415f2	-0.003480312
189	0xbcdf985c	-0.02729433
190	0xbceb720a	-0.028740901
191	0x3d0a1ab0	0.033716857
192	0x38e71ac9	0.000110199275
193	0xbc1c3334	-0.009533692
194	0x3cc041af	0.02346882
195	0xbcd40d81	-0.025885345
196	0x3c269f66	0.0101698395
197	0x3c6b84c5	0.014374916
198	0x3d122a73	0.035685014
199	0x3c60673b	0.013696487
200	0xbbc4d5fe	-0.006006955
201	0xbba1de31	-0.0049398174
202	0x3c88d2cd	0.01670208
203	0x3cf9b5d3	0.030482208
204	0x3d6dc0e6	0.05804529
205	0x3b1ae75c	0.0023636436
206	0x3d0b0ea3	0.033949506
207	0xbc728cd3	-0.014804083
208	0xbc7038df	-0.014661997
209	0x3b061fee	0.002046581
210	0x3b4c5e8c	0.0031184284
211	0x3abcd40d	0.0014406458
212	0x3d97bcb9	0.07409043
213	0x3d5df3e4	0.05418767
214	0x3cbfd878	0.02341865
215	0x3c72072a	0.014772216
216	0x3b5970b0	0.003317874
217	0x3cd9397a	0.026516665
218	0x3d161397	0.036639776
219	0x3c10893d	0.008821783
220	0x3d211a80	0.039331913
221	0x3d1b492b	0.037911575
222	0x3c0bbb5e	0.008528559
223	0xbc42a23b	-0.011879499
224	0xbba998f4	-0.005175704
225	0x3c6cc021	0.014450104
226	0x3cd2a2de	0.025712427
227	0x3d02104c	0.031753823
228	0x3d035213	0.032060694
229	0x3d2c96a5	0.042135853
230	0x394f8f57	0.00019794457
231	0xbc2c4712	-0.010514991
232	0xbceb29ce	-0.028706457
233	0xbc80ca77	-0.015721543
234	0xbc9bfc1f	-0.01904112
235	0x3d317de6	0.043332957
236	0x3cad60a3	0.021164244
237	0xbc5a9225	-0.013340508
238	0xbb96a18a	-0.0045968937
239	0x3bccec46	0.006253752
240	0xbc30be4b	-0.010787557
241	0xbd03fee8	-0.03222552
242	0xbc66aa1d	-0.014078644
243	0xbc92e74f	-0.017932562
244	0x3ca391b4	0.019966938
245	0xbcc2f865	-0.023800084
246	0xbcd6297f	-0.026142834
247	0x3c39c54b	0.011338542
248	0xbca22515	-0.019793073
249	0x3d3c2314	0.04593189
250	0x3c57f445	0.013180797
251	0x3c84eb53	0.016225493
252	0xbaba239d	-0.0014201287
253	0xbbda6b82	-0.006665648
254	0x3b85c167	0.0040818932
255	0xbc9dcb0d	-0.019261861

classifier.0.bias f4 [64]
0	0x3e1b5147	0.15167724
1	0xbda694a3	-0.08133819
2	0xbcd9cf13	-0.026587998
3	0xbd936071	-0.07196129
4	0x3e14df6d	0.14538355
5	0x3c93ae80	0.018027544
6	0x3d49786a	0.0491871
7	0x3e615b36	0.2200745
8	0x3e18d817	0.14926182
9	0x3e4aec37	0.19816671
10	0x3dbd7b1e	0.09251998
11	0x3d4b3ead	0.04962032
12	0xbd1361a3	-0.035981786
13	0xbd2398d0	-0.039940655
14	0xbce7c0e2	-0.028290216
15	0x3c338ade	0.0109584015
16	0x3e044db8	0.12920272
17	0x3d8b6741	0.068068035
18	0xbb9df093	-0.0048199384
19	0x3d8dc812	0.06922926
20	0x3de24009	0.1104737
21	0xbe8ffd1b	-0.28122792
22	0x3d37105d	0.04469334
23	0xbaeafa85	-0.0017927444
24	0x3dcfe864	0.10151747
25	0xbcb9638f	-0.022630481
26	0x3d03c78b	0.03217272
27	0x3d74a695	0.059729178
28	0x3e40ad7c	0.18816179
29	0xbe0b782c	-0.1362006
30	0x3c2bc337	0.010483555
31	0xbdd055be	-0.10172604
32	0xbe087cc9	-0.13328852
33	0x3d457cec	0.048214838
34	0x3d8a4a94	0.06752506
35	0x3db409df	0.08790945
36	0xbc948745	-0.018130908
37	0x3c7097c3	0.01468462
38	0xbdd1219a	-0.10211487
39	0x3e8e6deb	0.27818236
40	0xbc36ebaf	-0.01116459
41	0xbd81626d	-0.06317601
42	0x3c952e72	0.018210623
43	0x3d1db124	0.038499013
44	0x3e7c43c8	0.24635231
45	0x3db0c262	0.086308256
46	0xbce0346e	-0.02736875
47	0xbd1f6e6b	-0.038923662
48	0x3e1619ce	0.14658281
49	0x3d2d8df1	0.042371694
50	0xbca32170	-0.019913405
51	0x3d779aaa	0.060450234
52	0x3d9eb1e3	0.07748773
53	0xbcaf8fa7	-0.021430803
54	0x3cdf4d9b	0.027258685
55	0x3c4b9116	0.012424728
56	0x3e1c751d	0.1527905
57	0xbb67c0c9	-0.0035362712
58	0x3d41a37c	0.04727505
59	0x3de7ff0f	0.113279454
60	0x3d582af1	0.052775327
61	0x3db677c4	0.08909562
62	0x3c408353	0.01175006
63	0x3b6a1705	0.0035719287

classifier.2.weight f4 [10, 64]
0	0xbe9f12f4	-0.31069148
1	0xbec06a51	-0.37581113
2	0x3d98f05f	0.07467722
3	0xbe47af1d	-0.19500394
4	0x3e1cf1ba	0.15326586
5	0xbd51093b	-0.051034193
6	0x3e71713c	0.23578352
7	0x3e5396b5	0.20662959
8	0x3e19b60b	0.1501085
9	0xbd959348	-0.07303482
10	0x3d6dafbb	0.058028918
11	0x3e049646	0.1294795
12	0xbe251b55	-0.16123708
13	0x3e0d8a9e	0.1382241
14	0x3dc15cb6	0.09441511
15	0xbd1dbd1c	-0.038510427
16	0xbd9f90b3	-0.07791271
17	0x3e77cf62	0.24200204
18	0x3c75cc0b	0.015002261
19	0x3da31ea7	0.07964831
20	0x3e6fe771	0.23428132
21	0x3dd0bc6e	0.1019219
22	0x3e497b97	0.19676052
23	0xbe52a2e6	-0.20569953
24	0xbe170041	-0.1474619
25	0xbe68da0a	-0.22739425
26	0xbd0872c3	-0.03331257
27	0x3e0b51e6	0.1360546
28	0xbe064c26	-0.13114986
29	0x3e19cdb1	0.15019871
30	0xbc8629de	-0.016377386
31	0x3d809bbf	0.06279706
32	0x3e285076	0.16436943
33	0xbd38e0b8	-0.045136184
34	0x3eacb64b	0.33732828
35	0xbe8a9592	-0.27067238
36	0x3d9ed312	0.07755102
37	0x3b8908e4	0.004181968
38	0x3d278d40	0.04090619
39	0xbe3e8b46	-0.18607816
40	0x3e0cc724	0.13747841
41	0x3e5f45ef	0.21804021
42	0xbe763ac3	-0.24045853
43	0x3e04fdc5	0.1298743
44	0xbdf91104	-0.121614486
45	0xbe520ed4	-0.20513469
46	0x3e39699a	0.1810669
47	0x3e1e8efd	0.15484233
48	0x3eb7c652	0.35893494
49	0x3e42e638	0.19033134
50	0xbda636a1	-0.081158884
51	0xbd9415af	-0.07230698
52	0xbc28e9aa	-0.010309616
53	0x3b919d9a	0.0044438364
54	0x3d0ee32a	0.03488461
55	0xbbeb7225	-0.007185238
56	0xbe802a89	-0.25032452
57	0xbd2d5369	-0.042315874
58	0x3db6363e	0.088970646
59	0x3e354286	0.17701158
60	0x3e846cd8	0.2586429
61	0xbe290a42	-0.1650782
62	0x3e7c0816	0.2461246
63	0xbc56fff5	-0.013122548
64	0xbe0fa93b	-0.140294
65	0x3e5764df	0.21034573
66	0x3e02694e	0.12735483
67	0x3cd8316b	0.026390752
68	0xbdc7e2ca	-0.097600535
69	0xbe1a6cad	-0.15080519
70	0xbe23bc51	-0.15989806
71	0xbe18370b	-0.14864747
72	0xbe2ffbac	-0.17185849
73	0x3d17b5a7	0.03703847
74	0xbb5852ad	-0.0033008263
75	0xbe48b08e	-0.195986
76	0x3dbd3c89	0.09240062
77	0xbe47473e	-0.1946077
78	0xbe079eea	-0.13244215
79	0xbd2e3587	-0.042531516
80	0xbe3d1f36	-0.18468937
81	0xbe4f76a9	-0.20260109
82	0x3dbf081a	0.09327717
83	0x3e3bc0c4	0.18335253
84	0xbe42d453	-0.19026308
85	0x3e53f367	0.2069832
86	0x3e0b82fe	0.13624188
87	0x3e7b359a	0.24532166
88	0x3c125cb2	0.008933233
89	0xbe907268	-0.28212285
90	0x3db58984	0.0886412
91	0xbe07a17f	-0.132452
92	0xbe575686	-0.210291
93	0x3ec3638b	0.38161883
94	0xbd4f129b	-0.050554853
95	0x3e8c9162	0.27454668
96	0x3ecc616a	0.3991807
97	0xbe7c5c27	-0.24644528
98	0xbe827a9b	-0.25484166
99	0xbe54728c	-0.20746821
100	0x3d7b13d0	0.06129819
101	0xbe36d161	-0.17853309
102	0x3ed73831	0.42035058
103	0xbea34f19	-0.31896284
104	0x3d2bfb8b	0.041987937
105	0x3e38ab44	0.18034083
106	0x3e954d59	0.29160574
107	0x3e499634	0.19686204
108	0xbde7e7ad	-0.113234855
109	0xbe2da9de	-0.1695933
110	0xbe148b4f	-0.14506267
111	0x3e2a3b1c	0.16624111
112	0x3e19b3bb	0.15009968
113	0xbd7f5e36	-0.062345706
114	0x3de9f92d	0.1142448
115	0xbd5e8570	-0.054326475
116	0xbe0c3ac7	-0.13694297
117	0xbdd7b218	-0.105320156
118	0xbdd60f66	-0.10452156
119	0xbe71f6fb	-0.23629372
120	0x3da47f94	0.08032146
121	0x3d8a919b	0.06766053
122	0x3e386122	0.18005803
123	0xbc97f365	-0.018548677
124	0xbe6cdbd4	-0.23130733
125	0xbe71bc0e	-0.23606893
126	0xbe658191	-0.22412707
127	0x3e3ba517	0.18324696
128	0x3e12f5c1	0.1435156
129	0x3e2bd8f9	0.16781987
130	0xbe83c34c	-0.25734937
131	0xbdd71cb8	-0.105035245
132	0xbe70a5bf	-0.23500727
133	0xbd0c0b41	-0.03419042
134	0x3e12368c	0.1427862
135	0x3e6f634e	0.23377725
136	0x3e5c1496	0.21492228
137	0x3c974dd5	0.01846973
138	0x3e16c238	0.14722526
139	0x3ebb1a82	0.3654366
140	0x3e52ec5b	0.20597975
141	0xbe0a53e9	-0.13508572
142	0x3e54e70c	0.20791262
143	0x3df7cdb5	0.120997824
144	0xbe998a36	-0.2998826
145	0x3db474be	0.08811329
146	0xbc865458	-0.01639764
147	0x3ddd24a1	0.10798002
148	0x3ee04a33	0.4380661
149	0x3d2a1ba4	0.041530266
150	0xbe613d0d	-0.21995945
151	0xbdb5d325	-0.08878163
152	0x3db165d7	0.086620025
153	0x3e915d0f	0.2839131
154	0xbe89980d	-0.26873818
155	0xbc9184cd	-0.01776352
156	0x3ec154da	0.3776005
157	0xbdef29d5	-0.11677901
158	0xbd4a5e02	-0.04940606
159	0xbe7e01eb	-0.24805419
160	0xbdfc9a58	-0.12334126
161	0x3e128cbd	0.143115
162	0x3e285549	0.16438784
163	0xbdc0ef8d	-0.09420691
164	0xbc4f2f85	-0.012645607
165	0xbe0f0a11	-0.13968684
166	0xbdfb37c1	-0.122664936
167	0x3df9df73	0.12200823
168	0x3e30c920	0.17264223
169	0x3e8008b5	0.25006643
170	0x3bdc9efb	0.006732819
171	0x3e0f9022	0.14019826
172	0x3e16c89d	0.14724965
173	0x3e6e4b48	0.23270905
174	0x3d1feef9	0.03904626
175	0x3dbd545a	0.092446044
176	0x3d99a44f	0.075020425
177	0x3e3da467	0.18519746
178	0xbe3b40d0	-0.18286443
179	0xbd8f7094	-0.070038944
180	0x3e2b4b5b	0.16727965
181	0xbe18a59f	-0.1490693
182	0xbe3679ed	-0.17819948
183	0xbdad9ad1	-0.084767945
184	0xbe77f426	-0.24214229
185	0x3d18db8d	0.037318755
186	0xbe47e323	-0.1952024
187	0xbea39021	-0.319459
188	0x3d2bea17	0.041971292
189	0x3e33d35b	0.17561094
190	0x3e1f0cbe	0.15532205
191	0xbe40eecd	-0.18841095
192	0x3d57a6f4	0.052649453
193	0x3c6a3497	0.014294765
194	0xbea36a38	-0.31916976
195	0xbc3171a2	-0.010830315
196	0xbd0e76a0	-0.0347811
197	0x3e6f1740	0.23348713
198	0xbe6be373	-0.23035984
199	0xbe6d6c87	-0.23185931
200	0xbe32fe04	-0.17479712
201	0xbe3fdaf5	-0.18735869
202	0x3e51e173	0.20496158
203	0x3d881612	0.066448346
204	0xbe4d007a	-0.20019713
205	0xbbe4adb7	-0.0069787162
206	0xbdab0609	-0.083507605
207	0x3deda5e9	0.116039105
208	0x3d7f6f2c	0.06236188
209	0x3ccf7ea9	0.025328951
210	0xbd81d4fb	-0.06339451
211	0x3d7b809d	0.061401952
212	0x3cbd1965	0.023083398
213	0x3e710009	0.2353517
214	0x3e355971	0.177099
215	0x3e59d57a	0.21272841
216	0x3e20ba75	0.15696128
217	0x3d8ae26d	0.067814685
218	0xbd909e17	-0.07061403
219	0x3ac07dc1	0.0014685915
220	0xbbfa48af	-0.007638059
221	0xbe808e9a	-0.25108796
222	0xbe14617f	-0.14490317
223	0xbddf7698	-0.10911292
224	0xbcda1773	-0.02662251
225	0x3e46cf44	0.19415003
226	0xbe240f58	-0.16021478
227	0x3e063fab	0.13110225
228	0x3e81f794	0.253842
229	0x3d2a4369	0.041568194
230	0xbea09517	-0.31363747
231	0x3e856e21	0.26060584
232	0xbdbd4264	-0.09241179
233	0xbe334c02	-0.17509463
234	0x3de7cc6e	0.11318289
235	0xbd11d088	-0.03559926
236	0x3e1c194c	0.15244025
237	0xbd88d5c1	-0.06681395
238	0x3ceab8be	0.028652545
239	0xbe67b484	-0.22627455
240	0xbd199f49	-0.03750542
241	0x3dbcce4d	0.09219036
242	0x3cd70d86	0.026251566
243	0x3e52a922	0.20572332
244	0x3d9d8d03	0.076929115
245	0xbe2b5657	-0.16732155
246	0x3e3560ff	0.17712782
247	0x3e92c394	0.2866484
248	0xbd5d83dc	-0.05408083
249	0xbdf371a4	-0.118869096
250	0xbe969277	-0.2940862
251	0x3db7f646	0.0898252
252	0x3e4b53c7	0.19856177
253	0xbc06416b	-0.008194308
254	0xbd0475d8	-0.032338947
255	0x3e81ed22	0.2537623

classifier.2.bias f4 [10]
0	0xbe270402	-0.16310123
1	0xbf05a73f	-0.5220832
2	0x3e1cae01	0.15300752
3	0x3e1634df	0.14668606
4	0x3f14c380	0.5811081
5	0xbd1f0fb4	-0.038833335
6	0xbd5b30f8	-0.053513497
7	0xbea6102a	-0.32434207
8	0x3eb6ecbe	0.35727495
9	0xbeb46542	-0.35233504
