assignment3/checkpoints/best.ckpt (torch_old, 434336 bytes, 16 tensors)

feature_extractor.0.weight f4 [8, 3, 5, 5]
000000 39 25 03 3c d1 60 86 3d 71 03 a4 bd 40 bf 8c bd
       0.00800448 0.06561435 -0.08008469 -0.068724155
000010 81 a8 15 bd a4 d1 19 3c 68 8c 09 bd 45 0b 8c 3d
       -0.03653765 0.009388361 -0.033581167 0.06838087
000020 ae 1c 08 bd 0b 2b 7e 3a 93 a2 c2 bd b3 8e c3 bd
       -0.033230476 0.0009695745 -0.09503665 -0.09548702
000030 3e e7 39 be d1 9e 12 be f3 75 e6 bd cb ae 4f bd
       -0.18154618 -0.14318396 -0.11252966 -0.050703805
000040 31 d3 b5 bc eb 62 7a bb 45 0f 16 be 68 21 ed bd
       -0.02219543 -0.0038205932 -0.14654262 -0.11578637
000050 b6 0d f6 3c fa 8f 96 3d fc e2 57 bd b7 34 71 3d
       0.030035835 0.0735168 -0.052706704 0.058888163
000060 7e d7 46 bd 0c 38 3b 3d 50 ec 0b 3e 13 e2 7d bd
       -0.048545353 0.045707747 0.13664365 -0.06198318
000070 6b f5 e0 bc e1 10 8b 3b b1 6d 1e bd c3 86 cf 3d
       -0.027460774 0.0042439555 -0.03867883 0.10133126
000080 e0 98 80 bd 97 b1 2b bd 31 e2 a3 bd b7 39 13 be
       -0.062791586 -0.04191741 -0.08002127 -0.14377485
000090 32 a5 e1 bd a8 56 7c 3d 13 0a 97 3c 64 dc a9 3c
       -0.11017837 0.06160608 0.018437421 0.020734973
0000a0 cb 6f 15 bd 2a df df bd 19 23 01 bd b1 ff 1c be
       -0.036483567 -0.10931237 -0.031527612 -0.15331914
0000b0 b2 0a 04 be eb 04 9c bd 2d c8 4c 3d ce 6b 2c 3d
       -0.12894705 -0.076181255 0.04999559 0.042094998
0000c0 bd 28 99 bd c3 64 02 bd 1b 14 2c 3e e8 e1 55 3e
       -0.07478473 -0.031834375 0.16804545 0.20886958
0000d0 e2 ee 1e 3e 6f d3 fe 3d f7 b5 31 3e ff 57 f9 3b
       0.15520814 0.124426715 0.1735457 0.007609367
0000e0 47 8e c0 3d d0 12 92 bb f7 be 4e 3b 9f 76 3f 3c
       0.09402137 -0.004457809 0.003154693 0.011685996
0000f0 64 68 bb 3d a8 9a a4 3d 8c 61 e1 bc 15 23 a2 3d
       0.0915077 0.08037311 -0.027512334 0.079168476
000100 97 56 d5 3d 9d e3 77 3c 91 dc e6 3c f0 9f 52 3d
       0.10416906 0.015129951 0.028181346 0.05142206
000110 25 e4 ce 3d 6a 89 0e 3e e5 4d 2e bd eb b7 98 ba
       0.10102109 0.13919607 -0.042554755 -0.0011651492
000120 cb c7 ae 3d 81 5a 0c 3e d3 a1 0c 3e cb 0f d6 3d
       0.08534201 0.137064 0.13733606 0.10452231
000130 f5 ab aa 3c d6 fe ec bd d3 81 73 bc 6b 7c c5 bd
       0.020833949 -0.115720436 -0.0148624955 -0.096428715
000140 74 c2 e0 bd 03 f7 c2 3d aa af 88 3d 9a f5 15 be
       -0.10974589 0.0951977 0.0667413 -0.14644471
000150 1f 0f da bb 90 e0 34 bc 92 0d 80 bc 12 8e 7d bd
       -0.0066546346 -0.011039868 -0.01563147 -0.061903067
000160 df 2e e6 3c c3 8f a6 bd 8d 1e 88 3d b5 e9 a1 3d
       0.028098522 -0.08132889 0.06646452 0.07905904
000170 af f5 bf 3d 4d 84 50 3d 7f aa d4 bd f9 0c 48 bd
       0.09373032 0.05090742 -0.10384082 -0.048840497
000180 fb 27 9f 3d 98 cc 1a 3d 08 2c a1 bd 07 db 69 bd
       0.077712975 0.037792772 -0.078697264 -0.057093646
000190 a3 a0 c5 3d b2 34 78 3d 3c 49 a2 bd 73 4a 89 bd
       0.0964978 0.06059713 -0.079241246 -0.06703653
0001a0 c3 b9 14 be fb 7a 1e bc 87 b8 cd bd f1 46 eb bd
       -0.14523987 -0.0096728755 -0.100449614 -0.114881404
0001b0 59 25 28 bd 40 0a 57 bc 97 2e 0e bd 5b b2 9a 3d
       -0.041051243 -0.013125002 -0.0347124 0.0755355
0001c0 d8 e9 98 bd df 35 c1 3d 2c eb 94 3d dc bb 7e bd
       -0.07466477 0.09434103 0.07271418 -0.062190875
0001d0 f8 a6 31 3b f5 6b e2 3c 7d 8e 16 3d 83 45 4c 3d
       0.0027107578 0.027639369 0.03675698 0.04987098
0001e0 fb b1 b4 3d c5 a1 32 3d 4d df d7 bc 06 3f a9 3d
       0.088230096 0.043611307 -0.026351595 0.08263974
0001f0 21 3f ad bd 5e 3a 9e bd 9f 0c 2d bd 2a 9f a6 bd
       -0.084593065 -0.077259764 -0.042248365 -0.08135827
000200 a4 c3 98 bd 6a 2e 01 be 29 0c e6 bc f9 a7 80 3c
       -0.074591905 -0.12615362 -0.02808197 0.015705096
000210 47 92 c6 bd d4 29 17 bd 34 45 63 3d 06 7d 98 3b
       -0.09695869 -0.036905125 0.05548592 0.004653576
000220 b4 0f 69 3c d7 4d 35 bc 42 78 81 3c 11 aa 8d 3d
       0.014224935 -0.011065922 0.015804414 0.06917203
000230 d8 5e 15 3e a0 a6 d8 3d 52 80 07 3e d7 4f 3c 3c
       0.14586961 0.10578656 0.13232544 0.011493645
000240 6b ea a7 bd c5 63 37 bc e8 58 ec 3d a4 3e eb 3c
       -0.081990086 -0.0111932205 0.11540395 0.028716393
000250 42 ef f5 bc 1f 27 82 bd 0e d9 3b bd 0a 88 38 bd
       -0.030021314 -0.06355118 -0.045861296 -0.045051612
000260 aa 08 63 3c 31 b7 bd 3d 91 52 c7 3d 9e 13 84 bd
       0.013857046 0.092634566 0.09732545 -0.06449054
000270 2d 02 d9 3d 53 48 9c bd a0 19 a1 bc ba bb 0b bd
       0.10596118 -0.07630982 -0.01966554 -0.034114577
000280 30 b0 5c 3c ae 2b 4d b8 b4 0c d2 bd 18 23 db bd
       0.013469741 -4.891649e-05 -0.10256329 -0.10700053
000290 6b fa 7b bc c2 34 ec 3c 69 bd 13 bd b2 43 24 3d
       -0.0153795285 0.02883375 -0.036069307 0.04010362
0002a0 6d f5 ec bd 2a f0 1c bc 2f 93 ff 3d 41 bf 01 bd
       -0.11570249 -0.009578744 0.12479245 -0.031676535
0002b0 f0 ce d6 3d a3 67 07 3d 2a ef da bd a0 c6 dd 3d
       0.10488689 0.03305782 -0.10690148 0.108289
0002c0 bc 41 06 3c 76 42 48 bd de c6 ac 3d d0 76 c4 bd
       0.008194383 -0.048891507 0.084363684 -0.09592974
0002d0 92 91 19 3d d9 59 7b bc 60 a5 8c 3d e3 b7 e4 3b
       0.037492342 -0.015341246 0.0686748 0.006979929
0002e0 48 00 1b 3d 68 56 86 3d 46 cb 99 bc a8 1d 1f bd
       0.037842065 0.065594494 -0.018773686 -0.03884664
0002f0 95 cc f4 bd 24 33 44 3d e6 aa fb 3d 49 20 c7 3d
       -0.119530834 0.047900334 0.12288456 0.09722955
000300 e7 b8 ab bd 9b 88 c1 bb c8 e7 a8 bd 4a b1 ad bc
       -0.08384877 -0.005906177 -0.08247334 -0.021202702
000310 73 56 0e bd 13 39 69 3d 22 7d 77 bd 11 82 3f 3c
       -0.034750413 0.056939196 -0.06042207 0.011688725
000320 d6 68 7a 3c 9b 29 8f 3d 24 19 e5 bd 84 31 e9 bd
       0.015283784 0.069903575 -0.11186436 -0.113863975
000330 cf ba c2 bd 0c ba 9e 3d 72 22 80 bd cd 1f 56 3d
       -0.09508287 0.077503294 -0.0625657 0.05227642
000340 db 87 6a bc 8a 33 06 bd ef 75 ac bb 66 a7 37 bd
       -0.014314617 -0.032763995 -0.005263082 -0.044837378
000350 ff 0c 07 bd a7 01 ab bd 87 a6 41 bd 39 30 9b 3c
       -0.03297138 -0.083499245 -0.047277953 0.018943893
000360 9d cc ce bd 2f 10 c0 bd d6 a3 4f 3d 1d b4 00 be
       -0.10097621 -0.09378087 0.050693356 -0.12568708
000370 9a 87 1a 3c b8 88 f6 3d 24 7a fd 3c 52 51 90 bc
       0.009431744 0.12037796 0.03094203 -0.017616902
000380 00 53 eb bd 1c 02 0f 3e 28 de 15 3c 1f cc 8a 3d
       -0.1149044 0.13965648 0.009147204 0.06777214
000390 04 a3 8c 3d cf 72 cd 3d 11 7e 44 3d 6c f8 1b 3e
       0.0686703 0.100316636 0.04797179 0.15231484
0003a0 6f 77 b3 3d 0d 0a 41 3e 53 80 2a 3e 9c 3f 60 bd
       0.087630145 0.1885149 0.16650514 -0.054748163
0003b0 80 52 a1 3d d7 0d 0b bd 98 f2 35 3c ee 3e ce 3d
       0.07877064 -0.033948746 0.011105202 0.10070597
0003c0 12 ae 23 3d b6 15 bf 3d fb 90 3b bc 24 26 1b 3d
       0.03996093 0.09330313 -0.01144814 0.03787817
0003d0 6f e3 d4 3d e9 07 f6 bd 87 e4 9c 3d fe a9 b3 bd
       0.10394942 -0.120132275 0.07660776 -0.08772658
0003e0 0a e1 ba 3c 57 1d 64 3c 1b a8 bb bd 7c 20 33 bc
       0.022812385 0.013923011 -0.09162923 -0.010933038
0003f0 54 79 9d 3d f7 f3 34 bd 0a f5 85 bd da 37 c5 bd
       0.07689157 -0.044177976 -0.06540878 -0.096297935

feature_extractor.0.bias f4 [8]
000000 36 c4 0d be 60 52 60 bd c7 92 f6 bd 03 27 cb bc
       -0.1384438 -0.05476606 -0.12039714 -0.024798876
000010 61 ea e3 3d 1c ea c9 3c 7f 83 a2 3d b2 9e 8d bd
       0.111286886 0.024647765 0.07935237 -0.06915034

feature_extractor.2.weight f4 [16, 8, 5, 5]
000000 f3 47 0f bd ec 6a cb bb c2 a5 c0 bb 33 4b 59 bd
       -0.034980725 -0.0062078144 -0.005879135 -0.05305023
000010 5f c1 79 3d 34 c1 12 bd 89 f1 a3 3c 96 28 6d 3d
       0.06097543 -0.035828784 0.020012634 0.057900034
000020 00 b8 0d 3d 91 94 17 3c df f0 5b 3d 36 84 6a 3b
       0.034599304 0.00925173 0.05369651 0.003578437
000030 8f e2 12 bd 52 e8 88 3d 8d de 8c 3c e8 9c 96 bd
       -0.035860594 0.066849366 0.017195964 -0.07354146
000040 66 5e c2 bc a0 a5 4b bd c7 9c 7c 3d f2 ce 3e bc
       -0.023726653 -0.0497185 0.061672952 -0.011646019
000050 c3 68 92 bd 6e b4 26 bc cd 01 24 3d 0b ac 6d 3c
       -0.07148888 -0.010174854 0.04004078 0.01450635
000060 a7 29 9f 3c 3b b7 12 3c 2d 94 fe 3c 27 5d 19 bc
       0.019429041 0.008954818 0.031076515 -0.009360588
000070 82 86 96 bc 36 21 69 bd 4d b9 48 bd 32 0e 0b 3d
       -0.018374685 -0.056916438 -0.04900484 0.033949085
000080 8d ad 19 bd 5b b7 87 3c e8 1a f2 3c e1 70 2e 3b
       -0.037519027 0.016566923 0.029553846 0.0026617574
000090 06 2b 4a bd cc ef 86 3d 3d 1d 21 bd f1 7c 80 3d
       -0.049357437 0.065887064 -0.039334524 0.06273831
0000a0 15 a9 78 bd 5a c5 a6 bc ae e4 19 3d 00 88 da bc
       -0.060708124 -0.020357776 0.0375716 -0.026676178
0000b0 a9 76 82 3d 66 9b 52 bd 74 e1 7b bd 1b cd 06 bd
       0.06370289 -0.05141773 -0.061494306 -0.032910448
0000c0 2f cb 36 3c 40 35 85 3d 86 32 eb bc f1 8d e7 3c
       0.011156841 0.06504297 -0.028710615 0.028265925
0000d0 34 e7 53 bc d8 11 e3 bb 1f f4 7b 3d 6f e0 54 bd
       -0.012933541 -0.0069296174 0.06151211 -0.05197185
0000e0 66 75 04 3c 6b 21 8c 3d 79 87 8f bb 4c b4 7f 3d
       0.008084631 0.068423115 -0.0043801633 0.062427804
0000f0 66 61 bb bc 8d 18 61 3d 19 df 8e bd 45 3b 1a bc
       -0.022873592 0.054955054 -0.06976146 -0.009413545
000100 4c 63 0a bc ef b8 85 3c cb 2a ac 3c dc b9 43 3d
       -0.008446526 0.016323535 0.021016499 0.04778467
000110 33 77 78 bc 68 37 90 bb 35 28 1e 3d 99 1c ed bc
       -0.015165138 -0.004401136 0.038612563 -0.0289443
000120 6b 0f 5b 3d b5 bf 58 bd 67 93 32 bc fc d7 8b bb
       0.0534815 -0.0529172 -0.010899401 -0.0042676907
000130 ae f5 f1 3c 83 ff 2c 3d f7 1e a9 bc 39 b4 89 bd
       0.029536095 0.042235862 -0.020644648 -0.06723828
000140 ce 81 04 3d 01 89 86 3c ac fe 96 3c 2e 96 69 bd
       0.032350354 0.01642275 0.018431984 -0.057027988
000150 35 ce 05 3d e9 5a 73 3d 21 c2 7d bb d6 cd a4 bd
       0.032667357 0.05941287 -0.0038720446 -0.080470726
000160 9c c9 05 3d 15 08 8e bd 4b 72 b8 3b 65 0b 1a bb
       0.032662973 -0.06935135 0.005628859 -0.0023505327
000170 2f aa 44 bd 72 7a 02 3c d4 1b a4 bd af 41 f4 3b
       -0.048013862 0.007963764 -0.0801312 0.007454119
000180 e6 46 63 bd d1 54 a3 bc c9 16 d7 bb ce dc 30 3d
       -0.055487536 -0.019937905 -0.0065639955 0.043179326
000190 01 13 0b bd 8c 43 44 3d 56 07 c7 bb bb e4 05 bd
       -0.03395367 0.04791598 -0.0060738726 -0.032688837
0001a0 0d b4 7c bd 2f f5 7d bd 01 63 98 3d 6f 51 56 bc
       -0.061695147 -0.062001403 0.074407585 -0.013080939
0001b0 09 a5 a2 3b de d2 9a 3c 09 22 54 3d 04 49 88 3d
       0.0049635214 0.018899377 0.05179027 0.066545516
0001c0 76 e5 81 3d bd 11 45 bd 7f 82 08 bc 53 4f 0a bd
       0.06342594 -0.04811262 -0.008331894 -0.033767056
0001d0 b6 75 fd bc bf d4 db 3c aa 32 9b 3d b0 92 4a bd
       -0.030939918 0.026834844 0.07578023 -0.0494563
0001e0 03 7d 5c 3d d5 ca d5 bc 04 06 2d bb 89 ab 89 3d
       0.053830158 -0.026097694 -0.002640129 0.06722171
0001f0 6e fe ed bb b9 0c 1b ba 88 aa 63 bd 04 f3 58 3d
       -0.0072629964 -0.00059146766 -0.055582553 0.052966133
000200 ff 11 a9 bc a6 dc 86 bd c7 2d 84 3c dc 85 55 bd
       -0.020638464 -0.06585054 0.01613511 -0.05212961
000210 51 c4 6d bd c4 30 0f bb 17 45 3e 3d 11 75 95 bc
       -0.05804855 -0.0021849135 0.046452608 -0.018244298
000220 18 45 14 3d f0 54 7c 3d 5a db 2e 3d 97 1e 36 bd
       0.036198705 0.06160444 0.04268966 -0.044462766
000230 6a 89 b2 bb 67 f6 ab bc 41 82 6f bd b6 e8 a2 bb
       -0.00544851 -0.020991517 -0.05847383 -0.004971589
000240 81 a4 3e 3d 36 ff 75 3d 39 cc d9 3b c0 9c 6b 3c
       0.046543602 0.06005784 0.0066466597 0.014380634
000250 d4 0f 08 bd af 83 4f 3d 1d f8 f0 bc 04 55 4b bd
       -0.03321822 0.050662693 -0.029415185 -0.049641624
000260 45 60 25 3c d4 17 27 3d 7b 40 88 bd 54 d5 7c 3d
       0.010093753 0.04079421 -0.06652924 0.061726883
000270 f0 46 c6 3c 7e bc 52 bd 04 48 a1 bc 16 89 62 3d
       0.024203748 -0.05144929 -0.01968766 0.055306517
000280 cc 52 63 bd 33 a6 a7 bc b8 32 b1 3c ad 4b 89 bd
       -0.055498883 -0.020464992 0.02163063 -0.06703887
000290 09 31 04 3d 0d b1 16 3d 8a 31 35 3d e9 c9 41 bd
       0.032273326 0.036789943 0.044236697 -0.047311697
0002a0 34 25 85 3d 2b 1a 45 bd ae 80 8d 3d 7f 86 8f bd
       0.065012366 -0.04812066 0.06909309 -0.07008075
0002b0 c4 10 8a bd 86 da 17 3d 86 e4 83 3a 74 2b 48 3c
       -0.06741479 0.037073635 0.0010062612 0.012217391
0002c0 fe 3c 08 bd 06 3a d9 bc 40 ac 95 bc db c6 85 bd
       -0.03326129 -0.026516926 -0.018270612 -0.06532069
0002d0 e7 6d 1a 3c 83 16 86 3c a9 e9 0c 3b e2 df c1 3c
       0.009425617 0.016368156 0.0021501577 0.023666326
0002e0 f2 13 8d 3d 2b ce bf 3c 01 4e b7 bc a1 98 d7 bc
       0.0688857 0.023413738 -0.022376062 -0.026317896
0002f0 ad 4c 34 bd f1 66 43 bd da a1 f7 bb 76 16 27 bc
       -0.044018436 -0.047705594 -0.007557136 -0.010198226
000300 9a 7e 04 3d 81 a8 ff bc 7f 4c 5e 3d e2 f4 4e bd
       0.0323473 -0.031208279 0.05427217 -0.050526507
000310 54 ad 16 bb 01 5a 70 3d b8 f1 83 3d 85 da 3e bd
       -0.0022991495 0.058679584 0.064425886 -0.046595115
000320 91 1b 38 3c 31 2a d8 3b 2f fc 09 bd 2d 45 c6 bc
       0.011237041 0.0065968265 -0.033687767 -0.024202907
000330 1f 4a ab 3c 54 55 15 bd 5e e3 c7 3c d6 ab 36 3d
       0.020909367 -0.03645833 0.02440041 0.04459747
000340 c2 61 6a bc e6 a2 94 3d 0d 7b 56 3c c5 27 49 3d
       -0.014305534 0.07257633 0.013090861 0.049110193
000350 93 74 b0 3d c3 27 06 bc 20 e1 4f 3d d4 54 51 bc
       0.08615985 -0.008188191 0.050751805 -0.012776572
000360 6b 6d b1 bb 4d 3d 0a bc 9b 4c b7 39 88 fe cb bc
       -0.005414655 -0.008437467 0.00034961556 -0.024901643
000370 0d d9 e1 3c 58 eb 42 3c 38 e8 59 3d 50 11 eb bb
       0.027569318 0.011896931 0.053199977 -0.0071736947
000380 7b 95 79 3c b8 50 43 bd 93 21 ac bd af 11 f4 3a
       0.015233393 -0.0476844 -0.08404841 0.0018620993
000390 88 c8 94 bc 0d cc 54 bd 78 f3 29 bd b3 95 1b bb
       -0.018162027 -0.05195241 -0.041491956 -0.002374035
0003a0 80 b7 0a bd 7d f8 d9 3c b5 b3 25 bc e0 b9 f8 3c
       -0.033866405 0.026607746 -0.010113646 0.03036207
0003b0 38 c7 08 3d 5f ef 65 bc c1 fd 0a 3d 18 f5 6c 3d
       0.033393115 -0.014034121 0.033933405 0.057850927
0003c0 5a 9c 04 3d d0 53 2b 3d b8 bc e5 3c fe da 8a 3d
       0.03237567 0.041827977 0.02804409 0.06780051
0003d0 a0 33 7a bc 1d 16 6d bc ae b0 48 3d a9 63 47 bd
       -0.015271097 -0.014470604 0.04899662 -0.048679028
0003e0 62 34 03 3c 85 3a f3 bc 6e 7f ee 3c 15 5d af bd
       0.0080080945 -0.02969099 0.029113498 -0.08562676
0003f0 94 00 a5 3c c3 1c 3b 3d 5a 5e 21 bc aa 38 5a bb
       0.020141877 0.045681726 -0.009849155 -0.0033297935

feature_extractor.2.bias f4 [16]
000000 44 0b 04 3d 99 38 41 bd 32 99 98 bd 43 a2 39 bd
       0.032237306 -0.047173116 -0.07451095 -0.04532076
000010 bf 51 a2 bd 0a 21 3e bd 94 44 13 3d 6c a4 5a bb
       -0.07925748 -0.046418227 0.035954073 -0.0033362163
000020 ea 43 c1 bc 17 37 8d bd ea 06 0d bd da e6 cb bd
       -0.023591954 -0.06895273 -0.034430422 -0.09956141
000030 f1 ff 49 bd 4a 2c 25 3d a6 db 3d bd a7 f5 12 3d
       -0.04931635 0.04032544 -0.04635205 0.035878804

feature_extractor.5.weight f4 [16, 16, 5, 5]
000000 df 80 91 bc ed e8 26 bd 9b de 57 bd 0b a1 b6 3c
       -0.017761646 -0.04074948 -0.052702527 0.022293588
000010 ff 33 22 bd af c9 b0 3c fa c9 7f 3b e8 50 be 3c
       -0.03960037 0.021580545 0.00390303 0.023231938
000020 95 9b 27 bd 22 9a 2c 3d 5f 29 55 bd c2 4c 26 bd
       -0.04091986 0.04213918 -0.052041408 -0.040600546
000030 20 61 df 3c 6a 08 14 ba 07 38 ec bc c3 4d 39 bc
       0.027267992 -0.0005647006 -0.02883531 -0.011310044
000040 09 c6 3b bd 44 72 38 bd 62 98 43 bc 1e 2f 1d 3d
       -0.045843158 -0.045030847 -0.011938186 0.038375013
000050 04 ac 81 3c 6e d7 25 3c 01 10 59 bc 19 0f 3b 3d
       0.015829094 0.010122163 -0.013248445 0.045668695
000060 24 66 e3 3a 73 4b 3f 3c 99 8f b8 bb 41 62 a1 ba
       0.0017349166 0.011675703 -0.0056323525 -0.0012312607
000070 54 10 c0 3b 38 4b e3 3c 12 ea e5 3c 36 68 96 3b
       0.0058613215 0.027745828 0.028065715 0.0045900596
000080 9f 54 81 3c 26 45 ac bc d3 cc e3 3c b8 40 af 3c
       0.01578742 -0.021029066 0.027807629 0.021393165
000090 99 50 36 3d 80 8a 3f bb 8e b2 1d bd af fc 37 3c
       0.044510458 -0.002922684 -0.03850036 0.011229678
0000a0 94 4c 02 3d 10 3a 59 3d d3 45 fe 3c 28 4c e6 3c
       0.03181131 0.05303389 0.031039154 0.028112486
0000b0 d2 18 45 3d 0a 20 2f bb 95 cf 7a 3d 73 4a 2c 3d
       0.048119374 -0.0026721978 0.061233122 0.042063188
0000c0 f2 c7 42 3d 01 c6 43 3d eb bd 53 bd 7d 6b 7c 3c
       0.047553964 0.047796253 -0.05169479 0.015406487
0000d0 91 bd 0d 3d 6e fd 46 bd 51 9a 8e bc 6c d9 26 bd
       0.034604613 -0.048581533 -0.017407568 -0.040734693
0000e0 23 e8 b8 bc 6e fb 90 bb 28 55 5e 3c 0b 4e df bc
       -0.022571629 -0.004424504 0.0135701075 -0.027258893
0000f0 0c e8 51 bd 35 bc b9 3c f1 de b8 3c 58 7c 84 bc
       -0.051246688 0.022672752 0.022567244 -0.016172573
000100 05 3e 13 3d 60 cb 2c 3d 5c 67 df bb 04 82 b4 3b
       0.03594782 0.04218614 -0.0068177413 0.005508663
000110 20 52 32 3c a5 2e 0f bc 7b 94 a2 3a 01 de f5 bb
       0.010883838 -0.008739148 0.001240387 -0.0075032716
000120 ee 2b 69 bc f0 a6 16 3d 32 9f b6 bb 13 65 d4 bc
       -0.014231665 0.036780298 -0.005573177 -0.025927102
000130 33 a7 27 3d 79 e6 87 3b 7b 59 01 3d f4 54 2b 3d
       0.040930938 0.0041473475 0.031579476 0.041829064
000140 d3 94 1a bc a2 19 83 3b 17 94 2b 3d 47 33 21 bd
       -0.0094348965 0.0040008584 0.041889276 -0.039355543
000150 b5 3b 9c bc a4 34 ca 3b 70 cb aa bb 7c bd 29 3c
       -0.01907144 0.006170826 -0.00521224 0.010360118
000160 94 86 b9 3c b2 d7 be bc 7f e4 d9 3b cb 32 41 3d
       0.02264718 -0.02329621 0.0066495533 0.04716758
000170 e7 19 db bc 3d e1 08 bd f9 0d 19 bd e8 eb 0f 3d
       -0.02674575 -0.03341793 -0.03736684 0.035137087
000180 2c 37 27 bd 21 09 a1 bc 13 5f 19 3d eb 61 d7 bc
       -0.0408241 -0.019657673 0.037444185 -0.026291808
000190 55 d4 14 3d 70 26 ef bc 70 4e 25 3a e3 f7 b5 ba
       0.036335308 -0.029193133 0.00063059386 -0.001388308
0001a0 b0 d5 23 bc 1d b5 fa 3c 2d e5 25 3d d6 a1 0c bd
       -0.009999678 0.03060394 0.040501762 -0.034334026
0001b0 57 16 c0 3c 60 13 fe 3b 4e 5c 8c 3b 18 ee fa bc
       0.023448152 0.0077537745 0.0042834645 -0.03063111
0001c0 8e be 94 3c 77 0f 1b 3d df 20 2f bd fc 6f 18 bd
       0.01815727 0.037856545 -0.042755958 -0.03721617
0001d0 3b 48 24 bd a8 f1 a3 3c ff 56 ef bb f8 66 25 bc
       -0.040107947 0.020012692 -0.007304072 -0.01009535
0001e0 24 d8 69 3d 89 a2 b8 ba fb a5 a7 bc 33 16 6d 3c
       0.057090893 -0.0014086525 -0.020464888 0.014470625
0001f0 08 43 9d bc c5 24 70 bc 65 e0 dc 3c e5 2a 56 3c
       -0.019197002 -0.014657204 0.026962468 0.01307175
000200 56 7d 05 bd ed 98 48 3d 96 0a 0b 3d 8c 08 08 bd
       -0.032590233 0.048973966 0.033945642 -0.033211276
000210 a1 db bb 3c ca 1b b4 3c 59 ba 0d bd 5b b9 0e bd
       0.022931876 0.021985907 -0.034601543 -0.034844737
000220 6c 4a 26 bd f9 b6 be 3c fd e3 25 3c a1 5e b8 3c
       -0.040598318 0.023280608 0.010125157 0.02250606
000230 c3 26 b1 bc c9 f3 1a 3d f0 de dc 3b 98 08 21 bd
       -0.021624928 0.037830148 0.0067404434 -0.039314836
000240 fd 6f 45 bc 78 4c ce 3c 0f 38 29 3c c9 0e 03 bc
       -0.012050626 0.025182948 0.010328307 -0.0079991305
000250 f4 1e 0f bd 38 99 fc bc eb 21 0b 3d 54 da 1a bd
       -0.03494163 -0.03083478 0.033967894 -0.03780587
000260 9c 02 d7 3c 34 95 d4 bc fb 92 0f bc f4 03 6f bd
       0.026246361 -0.025950052 -0.00876307 -0.05835338
000270 d0 e8 d8 bc 0e 93 fe 3c d6 cb 64 bd 02 85 6b 3c
       -0.026478201 0.03107598 -0.055858456 0.014374973
000280 e6 ae 4b bd b3 04 8c ba 31 fe 5e bd 89 d5 48 bd
       -0.049727343 -0.0010682553 -0.054441635 -0.049031768
000290 2c 3e 4b bd 22 59 99 bc f8 df 9e 3b 05 cf 22 bd
       -0.04961984 -0.01871926 0.0048484765 -0.03974821
0002a0 a0 a8 0a 3c 8f 5b cf 3c af d3 3d 3d 40 df 48 3d
       0.008463055 0.025312213 0.046344455 0.049041033
0002b0 54 01 16 3d be fa 50 bc 36 d8 93 bb 59 1d 41 3d
       0.03662236 -0.012755094 -0.0045118583 0.04714713
0002c0 2d e5 e5 3c a1 b3 28 bc 08 e1 25 3d 0b 31 27 bd
       0.028063381 -0.010296733 0.04049781 -0.040818255
0002d0 2d 06 3e 3d 0f ea 03 3d 1c b8 05 bd d2 fe 15 bd
       0.04639261 0.032205638 -0.032646284 -0.03661997
0002e0 a5 13 33 3d 76 93 53 3d 3c 80 f6 3b 7f a6 83 bc
       0.043719906 0.0516543 0.007522611 -0.016070602
0002f0 74 40 04 3d 22 05 d9 3c 85 16 de bb e6 8b 23 3d
       0.03228803 0.026491705 -0.006777587 0.03992834
000300 8f 57 05 3d b4 3b 54 3c ad d3 dc 3c 09 05 4e bd
       0.032554206 0.012953687 0.026956404 -0.05029777
000310 96 58 db bc 8e 7f 19 3b 27 1c 33 3c 23 27 0d bc
       -0.02677564 0.0023421976 0.010932005 -0.008615288
000320 46 22 9b 3c 3a f9 69 3c cc f4 41 bd d7 d4 82 3c
       0.018937241 0.014280612 -0.047352597 0.01597063
000330 04 15 b0 ba 84 36 13 bd b0 d9 26 ba d6 3d 74 bc
       -0.0013433998 -0.035940662 -0.00063648354 -0.014907321
000340 1f a2 e4 bc 95 8a 35 bd d8 fc 23 3d aa b2 0a bd
       -0.027909337 -0.044321615 0.040036052 -0.033861794
000350 3d 54 3f 3b 15 82 18 3d 6f bc d3 bb ac a0 05 bd
       0.0029194497 0.03723343 -0.006461672 -0.03262393
000360 14 f0 4d bd 5d cf c4 3b 45 b8 de bc ff 02 5e 3b
       -0.050277784 0.006006165 -0.027187476 0.0033876298
000370 f9 18 95 3c 7f 5b 6a bc 0b 0d 06 3d 80 89 05 bc
       0.018200384 -0.014304041 0.032727282 -0.008150458
000380 9e 4f a6 bc 30 3c 1d bd 7f 77 18 3c ce bf 17 bd
       -0.020301636 -0.038387477 0.009305834 -0.037048154
000390 ea 9f 2c 3b a8 b9 57 bc a8 2c e2 3c e9 c2 00 bd
       0.0026340433 -0.0131668225 0.027609184 -0.03143588
0003a0 f0 53 03 bd 68 71 7f bc eb 72 1e bd a5 87 50 3c
       -0.03206247 -0.015591003 -0.038683813 0.012727653
0003b0 74 64 cf bc 50 dd 4d 3c 4d 91 a3 3c 5e ac a8 3c
       -0.025316454 0.012564972 0.019966746 0.020590004
0003c0 09 a2 47 bc c6 8b be 3c 00 ce 01 bd c1 cd 66 bd
       -0.012184628 0.023260009 -0.031690598 -0.056348566
0003d0 47 30 3e bc d9 ea 10 bd 94 bf 1e bd 65 35 3a 3c
       -0.01160819 -0.03538022 -0.038756922 0.011365269
0003e0 28 a2 22 3d 51 cb c2 bc ed 06 46 bc 78 4b 42 bd
       0.039705426 -0.02377859 -0.012086612 -0.047435254
0003f0 e2 83 9b bb 5e df 4e b7 dd bf a5 bc 63 35 ec 3c
       -0.0047459463 -1.2330564e-05 -0.02023309 0.02883405

feature_extractor.5.bias f4 [16]
000000 4f d4 43 bd 49 21 07 3c e2 92 f2 3b 0b e0 b1 bb
       -0.047809895 0.008247682 0.0074027637 -0.0054283193
000010 f1 cc 4d bd 88 f0 1b bd 77 0f 91 bd 23 3c b2 bb
       -0.050244275 -0.038071185 -0.07083028 -0.0054392978
000020 66 db 0e 3d 10 fe 3c 3d b7 ff e2 3c ea 8b 30 bd
       0.034877203 0.04614073 0.027709825 -0.043102182
000030 c3 ec ed bc fb d8 95 3c 32 8f 60 3d 30 e2 90 3d
       -0.02904356 0.01829194 0.05482406 0.07074392

feature_extractor.7.weight f4 [32, 16, 5, 5]
000000 c4 0f 23 3d 71 e4 9c 3b 11 97 15 bd ce 30 df bc
       0.039809957 0.0047879745 -0.03652102 -0.027244952
000010 d6 3d 03 3d 33 e6 16 bd 86 15 f3 bc 89 9d cc bc
       0.032041393 -0.03684063 -0.02967335 -0.024977462
000020 f3 60 f5 bb 7e 0c e7 3c 8f 73 18 3d 41 23 2f 3d
       -0.007488364 0.028204199 0.03721958 0.04275823
000030 91 75 e7 3c 09 a7 88 3c 5b 21 06 bc 6b e6 0b bd
       0.028254302 0.016681211 -0.0081866635 -0.03415529
000040 08 94 e2 bc e2 e5 05 bb 23 f9 34 3d 28 92 83 bc
       -0.027658477 -0.002043121 0.044182908 -0.016060904
000050 3a 19 63 bc b8 4c d7 bb 4a 3d d5 bc 60 05 d1 bc
       -0.013860995 -0.006570425 -0.026030201 -0.025515258
000060 e4 c6 63 3c b6 96 1b bd 1e 70 af bb 0e c1 66 bc
       0.0139024 -0.037985526 -0.0053539416 -0.014084114
000070 55 76 2a 3c 8b be b7 bb c0 2f 02 bd 57 b8 a6 bc
       0.010404189 -0.0056074313 -0.03178382 -0.020351572
000080 3a a4 88 bc 5a 75 9c 3c c8 11 37 3c 74 47 b9 bc
       -0.016679872 0.019098926 0.011173673 -0.02261708
000090 80 b6 04 3d fc 19 8f ba d9 4e c4 3c 6f 4b a6 bc
       0.032400608 -0.0010917778 0.023963379 -0.020299641
0000a0 44 85 48 bd 1e 41 5f bd 90 cc af bc ca 43 e9 3c
       -0.048955217 -0.05450546 -0.021459848 0.028474707
0000b0 6b 3a 00 3d 89 1b 32 3c c4 20 24 3c 16 9f 16 bd
       0.03130571 0.010870823 0.010017578 -0.03677281
0000c0 14 81 84 bc 7c 9d cf 3b 0e df 3e bd e4 3b 46 bd
       -0.01617483 0.0063359123 -0.04659944 -0.04839696
0000d0 00 86 23 bd b2 6f 66 3c 93 d0 eb bb e8 e2 42 bc
       -0.039922714 0.014064716 -0.007196495 -0.011894919
0000e0 22 6a e5 3c 37 ff 11 bd 68 b5 05 bd d7 57 4d bc
       0.02800471 -0.035643782 -0.032643706 -0.01253315
0000f0 7f e3 e4 3c ec f4 93 3b 53 79 3d bd 5f 2b 05 3d
       0.02794051 0.004515281 -0.046258282 0.032512065
000100 45 7b ff bc 69 21 16 3d e4 b2 7c 3c cf 05 2a 3c
       -0.03118671 0.036652956 0.01542351 0.010377361
000110 7c 31 20 3d 3b 50 88 3c 35 57 47 bd 8e f6 a0 3c
       0.039109692 0.01663982 -0.04866715 0.019648816
000120 37 8c 44 3d 42 90 ae bc 0d aa 14 3d 39 02 45 3d
       0.04798528 -0.021309022 0.036294986 0.048097823
000130 d2 e4 97 bb b9 b7 ae 3b 33 87 8a bb 87 f3 35 3d
       -0.004635432 0.00533196 -0.004227543 0.0444217
000140 e8 4e 07 3d f1 0d 45 3d 97 ca 09 bd 45 47 4e bc
       0.033034235 0.048109 -0.03364047 -0.012590234
000150 88 f5 06 bd 31 f4 c1 3c 2b b8 93 bb da cf ef 3c
       -0.032949 0.02367601 -0.0045080385 0.029273916
000160 b8 dd 1b 3d c4 71 8a bb 42 b9 45 3c 1f 22 e3 bc
       0.038053244 -0.0042249877 0.012068095 -0.027726231
000170 db 38 a1 3b f6 12 96 3c d9 f5 34 3d c9 34 8f 3c
       0.004920108 0.018319588 0.04417977 0.017481225
000180 3b 1a 61 3c 7a df ef 3c 74 aa 33 3d af 4d 1e 3c
       0.013739164 0.029281367 0.04386373 0.009662076
000190 7d 8f 51 3d 9d 78 e5 bc a9 21 9f 3c 35 7a 01 3b
       0.05116223 -0.028011614 0.01942523 0.001975668
0001a0 f3 c1 1a 3d 17 6f 33 bd fb d5 e5 3c cf ba 21 bd
       0.03778262 -0.043807115 0.028056135 -0.039484795
0001b0 ce e2 48 bc cf 13 6b bc 00 9a 5a bc 7b c2 ad bc
       -0.012261106 -0.014347984 -0.0133423805 -0.0212109
0001c0 13 99 1a bd 65 fa 28 bd 5a 74 0d bc a7 d5 31 3d
       -0.03774364 -0.04125442 -0.008633697 0.043416645
0001d0 28 32 2e bc 4f 5c fe bc 8e 4f 45 bc d9 7c 23 bd
       -0.010632075 -0.031049876 -0.012042893 -0.039913986
0001e0 f6 ee a3 37 02 ec 33 3d 5e 2f 3c bd d8 f5 f0 3c
       1.9542389e-05 0.043926246 -0.04594361 0.029414102
0001f0 18 c3 1e 3d 3e 12 0e 3d 2f 4e 03 bd 90 97 5c 3b
       0.038760275 0.034685366 -0.032056984 0.0033659674
000200 c1 8b d2 3c 3d 5c 3a bd 6e d6 1f 3d 9a 52 71 bb
       0.025701405 -0.04549812 0.039022855 -0.0036822916
000210 43 40 34 bd 9a 05 5d bc 76 63 c5 b8 1d a0 9a bc
       -0.044006597 -0.013490105 -9.412218e-05 -0.018875176
000220 5f 0e 9d bc 19 74 7c bb 37 f2 91 3c 32 92 b5 3c
       -0.019171892 -0.0038521348 0.017815692 0.022164438
000230 a7 9a 3a bd 2f 54 e4 39 e1 5c 87 3c 05 2e 33 3d
       -0.045557644 0.0004355027 0.01652378 0.04374506
000240 7a 14 dd 3c 97 be 14 3d 22 56 91 3c e4 48 9f ba
       0.026987303 0.036314573 0.017741267 -0.001215246
000250 46 bc c5 bc 85 87 94 bc cb 58 96 3c dd c0 1b bc
       -0.024137627 -0.018131027 0.018352887 -0.009506431
000260 4b 33 3a 3d f8 e2 07 bd e7 2b fe 3c ac ec 19 3d
       0.045459073 -0.03317544 0.031026794 0.037579224
000270 4e e4 19 3d 70 3f 2c 3d c1 39 e7 bc b7 ce e5 3c
       0.037571244 0.042052686 -0.028225781 0.02805267
000280 d2 fc 2c bd 1a 29 a5 bc 95 e2 2d bb 14 fc 37 3d
       -0.042233296 -0.0201612 -0.0026532758 0.044918135
000290 4e 98 1d bc e7 fa fa bc 2e dc 0d bd 28 f5 28 3c
       -0.009618832 -0.030637218 -0.034633808 0.010312356
0002a0 57 df 2d 3c fe 5e 86 3c 37 8e d5 bb 06 73 cf 3c
       0.01061233 0.016402718 -0.0065171975 0.025323402
0002b0 1c 18 6e 3c 34 71 ad bb bd 79 00 3d a1 f7 06 bd
       0.014532115 -0.005293036 0.0313661 -0.032951
0002c0 43 35 af bc 04 c7 8c 3c cf 77 18 bc 73 9e 86 3b
       -0.021387702 0.017184742 -0.009305908 0.004108244
0002d0 54 7d 7b bc b5 2e 04 3d 14 41 51 3d 44 26 40 3d
       -0.015349705 0.032271106 0.051087454 0.046911493
0002e0 f9 74 8e 3c 4e 9e fc bc 33 37 84 bc a8 e5 ae bc
       0.017389761 -0.030837204 -0.016139602 -0.021349743
0002f0 87 ee 03 bc 7f 37 bb bc 0e 93 f4 3c 6b a5 41 bd
       -0.008052475 -0.022853611 0.029855277 -0.047276895
000300 b2 20 23 3b c1 5e 17 3d c8 dd 1c bd ce 60 09 bc
       0.0024891314 0.0369556 -0.038297445 -0.008384896
000310 d4 12 e4 3c 1a 50 8b bc 14 25 ba bc 94 82 e4 3c
       0.02784101 -0.017005969 -0.022722758 0.027894296
000320 6d d3 11 bd 0c 08 4a 3d e3 62 36 3d 4f a7 2e 3b
       -0.035602022 0.04932408 0.0445279 0.0026650017
000330 1c 95 20 3c 80 5a e7 bc 24 1a 16 3c bd 23 24 bd
       0.009801175 -0.028241396 0.009161506 -0.040073145
000340 47 0e 69 bc 65 2b 25 3d 80 94 2c 3c 4f 3a 06 3d
       -0.014224595 0.040324587 0.010533452 0.03277045
000350 db 51 f4 3c b0 3e 3b 3d ad 9e 45 3c dc 61 2b bd
       0.029824188 0.04571408 0.012061757 -0.041841373
000360 cd da 4c bd a0 a9 dc 3c 79 63 1b 3d 26 dc 45 3d
       -0.050013352 0.026936352 0.03793666 0.048305653
000370 ad ac 1e bd 42 17 27 3d 68 3f b7 bc e0 b6 1f 3c
       -0.038738895 0.040793665 -0.022369102 0.009748191
000380 ae f5 06 3d 9e 40 18 bd 73 39 3e bd dc b7 0a 3d
       0.032949142 -0.037171 -0.046441507 0.03386675
000390 0f 62 3e bd 67 47 c1 3c e0 51 00 3d 1a 3a 20 3d
       -0.046480235 0.023593618 0.031328082 0.03911791
0003a0 e6 3d 50 3b a9 2a 38 bc 8d 86 f2 3b 78 c2 92 bb
       0.0031775176 -0.01124064 0.0074012936 -0.004478749
0003b0 e3 75 36 bd 88 2c 68 3c 93 8e de bc 37 f0 1e 3d
       -0.04454602 0.014170773 -0.027167594 0.038803305
0003c0 fc 9d b2 bc c0 02 05 bc 13 e9 17 bd ca 16 44 3d
       -0.021803848 -0.008118331 -0.03708751 0.047873296
0003d0 ea 02 fc 3c 08 11 2e 3d 88 56 e5 3c 53 d1 02 bd
       0.030763108 0.04249671 0.027995363 -0.03193791
0003e0 a9 a2 3e 3d 80 a5 ec bb ff c2 62 3d 77 ec 87 3c
       0.046541844 -0.0072218776 0.055361744 0.016592247
0003f0 b8 44 21 3d de 93 65 bc d8 a5 c0 3c ef fd 27 3c
       0.039372176 -0.014012305 0.02351658 0.010253414

feature_extractor.7.bias f4 [32]
000000 bd 2b c7 bc 9e c1 09 3c 67 6d f0 3c c5 e3 79 3c
       -0.024312848 0.008407978 0.029349042 0.015252058
000010 ea 5b 83 bd c7 6a 4b 3d 19 25 f5 bc 4a 8f ed 3b
       -0.064140156 0.049662378 -0.029924916 0.0072497474
000020 8d 55 9e bc 22 e6 18 bd 0b 2a 25 3c ae 16 3f bc
       -0.019327903 -0.037328847 0.010080825 -0.011663122
000030 01 98 00 3d 59 9c ce 3b 9f ee 92 bc 44 d1 3f 3c
       0.031394962 0.006305259 -0.017936049 0.011707608
000040 ad 46 3f 3d 40 0e c8 3b 55 91 3d bd 51 43 8f bc
       0.04669826 0.0061052144 -0.046281178 -0.017488154
000050 da 07 eb 3c 35 7a 05 bd 8e ba 11 3c a9 68 dd 3c
       0.028690267 -0.03258725 0.008894576 0.027027445
000060 5c 29 04 3d 43 11 df 3c a6 b2 04 3c cb b9 a7 3b
       0.032266006 0.02722991 0.008099234 0.005118584
000070 8f 8a 07 bb c9 f0 8f 3c 51 7f 1d 3d 32 be 02 bd
       -0.0020681953 0.01757087 0.038451497 -0.031919666

feature_extractor.10.weight f4 [32, 32, 5, 5]
000000 13 9d 90 bc d3 ce e6 3b 83 a2 b8 bc a4 72 bb 3c
       -0.017653024 0.0070436983 -0.02253843 0.022881813
000010 eb d3 cf 3c 82 ec b3 bc 49 9d a0 bc c3 01 ac bc
       0.025369605 -0.021963362 -0.01960625 -0.020996934
000020 da 26 b6 3c cf 90 99 bc 3d 52 17 bc 24 dd cd bc
       0.022235323 -0.018745808 -0.009235916 -0.025129862
000030 f6 8a 17 3c 6e 2d b6 ba 3e 13 36 3c 9e 7c 81 bb
       0.009249439 -0.0013899037 0.011112986 -0.003951623
000040 0a 5b 69 3c 33 a9 bc bb 2d 36 ef 3c 15 e2 15 bc
       0.014242897 -0.005757475 0.029200638 -0.00914814
000050 ec 7b f4 3c 70 e1 89 ba 77 ee 59 3b e8 50 7f bc
       0.029844247 -0.0010519456 0.0033253708 -0.015583254
000060 fb fe bf bc b2 72 a8 bc 37 99 f1 bc 3e b8 a1 3c
       -0.023437014 -0.020562503 -0.029492004 0.019741174
000070 bd 03 91 3c 9d 65 d0 ba 48 fc 82 3c 0d 89 11 3c
       0.017701978 -0.0015899424 0.015989438 0.008882773
000080 a4 1e d3 3c d3 6f ee 3c 3f d6 08 3d 6b 13 6c bc
       0.025771447 0.029106056 0.033407446 -0.0144089265
000090 86 c6 d2 3c cb aa 22 bd 9e 15 31 3c 7d 72 a4 bc
       0.025729429 -0.039713662 0.010808377 -0.020074124
0000a0 ec 8e c3 3c bf 1c 32 3b 0b 4a 19 bd c7 25 94 3b
       0.023871861 0.0027177779 -0.03742413 0.004521105
0000b0 ba 2a ac bc 68 19 f5 3c 3f 5b 80 bc c9 58 0d bd
       -0.021016467 0.029919341 -0.01566851 -0.0345085
0000c0 c9 2e a2 bc ab 75 01 3d 66 b2 d1 3b 80 67 04 3c
       -0.0197977 0.031606358 0.0063994406 0.008081317
0000d0 33 96 d5 3c 73 50 2b bc 9f f9 bf 3c da d9 87 3c
       0.026072597 -0.010456192 0.023434458 0.016583372
0000e0 24 15 90 3a 6c ae 01 3d ea 4e 29 ba f9 c9 aa bc
       0.0010992629 0.031660482 -0.00064585975 -0.020848261
0000f0 46 a7 0b bd 93 07 b6 bc bb 97 a0 bc b3 09 7b 3c
       -0.03409507 -0.022220409 -0.0196036 0.015322137
000100 54 80 83 3c 40 bd 15 bc 91 28 a7 3b 04 de 0b 3d
       0.016052403 -0.009139359 0.0051012714 0.034147277
000110 09 cb bf 3a 9f 0c a7 3c b2 11 46 3c 2a 9e 11 3d
       0.0014632653 0.02039176 0.01208918 0.035551228
000120 5b 1c 12 3d 05 8e b9 bc 36 25 8e bc 22 15 a7 bc
       0.035671573 -0.022650728 -0.017351728 -0.02039582
000130 d0 22 9a bc 5b 06 01 bd 60 9b 06 bd bd 5a b3 3c
       -0.018815428 -0.0315002 -0.03286302 0.021893853
000140 fe cf 57 3c 51 b7 a7 3c c1 91 50 bc 6b 2a 57 3c
       0.013172148 0.020473154 -0.012730063 0.013132672
000150 58 c1 13 bd b4 87 e7 3b f6 88 1e bc e8 eb ce 3a
       -0.03607306 0.0070657376 -0.009676209 0.0015786858
000160 34 73 5e bc 51 3f 4a 3c c5 c0 38 bc fb 04 9b bc
       -0.013577271 0.012344197 -0.011276429 -0.018923273
000170 0d ff 48 bc eb 23 4b bc 12 f8 ca bc d7 a3 03 3d
       -0.01226784 -0.0123987 -0.024776492 0.03213867
000180 30 13 a6 3c 3b bf 88 3c 93 d0 a3 bc e5 15 b9 3c
       0.020272821 0.016692748 -0.019996917 0.022593448
000190 f7 04 be bc 85 52 e7 3c cd a9 23 3a 25 cf 0f bb
       -0.023195727 0.02823759 0.0006243259 -0.0021943536
0001a0 dc 79 87 bc ca a0 c3 bb 77 91 f1 bb 3a 5a c0 bb
       -0.0165376 -0.0059700953 -0.007372077 -0.005870131
0001b0 9d ac 8a 3c f3 58 09 bd 7b 28 f4 bc 43 37 c0 bc
       0.016928012 -0.033532094 -0.029804459 -0.02346385
0001c0 97 9f 0a bd 8e 7f ac bc b0 6e aa 3c f9 bf 17 3c
       -0.033843603 -0.021056917 0.020804733 0.009262078
0001d0 0e da c1 bc a3 29 00 bd 14 20 c4 3c b6 3d 0c bd
       -0.023663547 -0.031289708 0.023941077 -0.03423854
0001e0 26 ca db 3c f9 eb dc 3c f9 28 cd bc 77 ac 2f 3c
       0.02682979 0.02696799 -0.025043951 0.010722271
0001f0 6a 0e 30 bc cc 32 16 bc bd a3 ca 3b dd ed 02 bd
       -0.010745624 -0.009167384 0.00618407 -0.031965125
000200 b0 d8 c5 bc 41 3e 63 3c 1d dd be bb c1 5c c9 bc
       -0.024151176 0.013869823 -0.0058246986 -0.024580361
000210 44 b3 2c 39 68 71 00 3b 04 e1 77 3c 6c cf bf 3c
       0.0001646998 0.0019598845 0.0151293315 0.023414336
000220 5e de cd bc 76 3c 38 bc 5a 0e 12 3d 71 de de bc
       -0.025130447 -0.011244884 0.035658218 -0.027205678
000230 6f b1 0c 3d e7 1e e6 bc 79 73 d5 3c 24 87 b2 3b
       0.0343489 -0.028090907 0.026056038 0.005448239
000240 b5 c7 59 bc 90 12 0d bc 89 5c 5e 3c ad 0c 8e b9
       -0.013292243 -0.008610383 0.013571867 -0.00027093795
000250 7f a2 83 3c 9d e6 07 3d 11 fd dc bc 58 11 2f bc
       0.016068695 0.033178914 -0.02697614 -0.010685287
000260 a6 79 da bc 87 88 92 bc 3d 7e eb 3b 2e 7e dc bb
       -0.026669335 -0.017887367 0.0071866796 -0.006728909
000270 3e 9d 80 bb 85 1c 86 bc f8 a0 c3 bb c7 b8 7f 3c
       -0.0039249947 -0.016371021 -0.0059701167 0.015608019
000280 d3 a2 d0 3b 2e 76 33 3c 26 71 d2 bc 18 08 e1 3b
       0.0063670664 0.010953469 -0.025688719 0.00686742
000290 79 14 c6 bc f1 f9 bf 3b e0 b1 79 bc 7c 08 92 bc
       -0.024179684 0.0058586528 -0.015240163 -0.017826311
0002a0 0a 9a b9 bb 3c 77 74 3c c9 41 0f 3d c0 e8 91 bc
       -0.005664115 0.014921006 0.034974847 -0.01781118
0002b0 d1 7c 17 bd f2 40 82 bc 4b f1 65 3c 44 cc b0 3c
       -0.03698427 -0.015900109 0.0140345795 0.021581776
0002c0 6f 5a be 3c 8b ce 94 bb 59 d9 87 3b 53 bb ea 3c
       0.023236481 -0.0045412234 0.004145783 0.028653776
0002d0 8a 39 c9 bc 8d 9d 08 3c 54 c6 9c bc 59 a6 cb bb
       -0.02456357 0.008338344 -0.019137539 -0.0062148985
0002e0 b2 4c 94 bb 69 92 d6 3b 32 f0 d0 3c f4 53 3b bc
       -0.0045257444 0.006548215 0.025505159 -0.01143359
0002f0 fe af 20 bb c8 6f 4c bc 81 d9 68 bb 4d 66 ed 3c
       -0.0024518962 -0.012477823 -0.0035530033 0.028979445
000300 66 2d 17 3d 20 c4 1c 3c cc 84 2d bc 7a 38 8e 3c
       0.03690853 0.009568244 -0.010590743 0.017360914
000310 e1 c3 a8 bc 78 f2 ae bc f9 9e bc 3c fa 85 0b bc
       -0.020601215 -0.021355852 0.023025023 -0.008515829
000320 19 1b 10 bd 70 31 c7 bc 89 18 a0 bc ed 63 0f 3d
       -0.035182092 -0.024315566 -0.01954295 0.035007406
000330 ae 8c d5 3b 27 25 81 bc bc 36 97 3b 2a d4 41 3c
       0.0065170145 -0.015764786 0.004614679 0.011830369
000340 d9 1b 6d 3b 65 55 3d 3b 2b 48 31 bc c9 c2 ec 3c
       0.0036179929 0.002889001 -0.010820429 0.028901475
000350 de 05 e6 3c 19 96 c9 bc 08 33 56 3c 11 b0 ee 3c
       0.02807897 -0.024607705 0.01307369 0.02913669
000360 1a 60 02 bd 9b 65 94 bc 50 00 e7 bc ec 50 c6 3c
       -0.03182993 -0.018114856 -0.028198391 0.024208508
000370 da b3 12 3d 15 dd 27 bc f8 a0 ed bc 64 17 99 3c
       0.03581605 -0.010245581 -0.02900742 0.018687911
000380 b0 c9 99 3a 49 c7 03 3b 1c 98 94 bc 65 9c 70 bc
       0.0011733081 0.0020107797 -0.018138938 -0.014685725
000390 84 87 cc 3c 96 64 53 3c 55 81 00 bc 05 56 99 b8
       0.024966963 0.0129023995 -0.007843335 -7.311631e-05
0003a0 da 2c a3 3b 57 e0 1d bc 4f d4 db 3c 2d d3 a6 3c
       0.004979712 -0.009636006 0.026834635 0.020364368
0003b0 9a 61 e9 bc 83 12 81 3c d1 ac 9f 3c 2b 76 d5 bc
       -0.028488923 0.015755897 0.019491585 -0.026057323
0003c0 c1 ed 74 b9 48 8e f0 3b 6d eb c9 bb 53 96 67 3b
       -0.00023358224 0.00734118 -0.006162098 0.0035337403
0003d0 37 30 17 3c e9 c5 02 bd bd 9b e7 bc 73 57 3a 3c
       0.009227804 -0.031927023 -0.028272504 0.011373389
0003e0 f0 45 91 3c 9e 1c d8 bc 36 66 d4 3c ac 18 07 bb
       0.017733544 -0.026380833 0.025927644 -0.002061407
0003f0 91 8c dd 3c 97 18 1a bc 80 71 43 3c d5 c6 e2 3c
       0.027044566 -0.009405277 0.011928916 0.027682701

feature_extractor.10.bias f4 [32]
000000 db 11 e3 3c fb 28 31 3d b8 8d 67 bc 93 9d 3e 3d
       0.027718475 0.043251973 -0.0141329095 0.046536993
000010 94 94 71 bc fa ad 81 bc 48 51 c9 3b 86 f0 02 3c
       -0.014744896 -0.015830029 0.0061437227 0.007991916
000020 73 0d a5 bc e1 6a c1 bc 52 a5 01 bd d5 d8 a4 3c
       -0.020148015 -0.023610534 -0.031651802 0.020122925
000030 5a 66 8c bb 29 3b 24 3d d7 59 40 bc a9 61 3e bc
       -0.004284662 0.040095482 -0.0117401695 -0.011619964
000040 44 39 e3 3b db b5 13 3d 40 af 62 bc f2 38 71 3c
       0.006934317 0.036062103 -0.013835728 0.0147230495
000050 25 09 d5 3b 7e f7 92 b9 62 d7 9c bc 4f 3a 19 3c
       0.0065013343 -0.00028031686 -0.019145671 0.009352281
000060 01 ac 60 3c a4 08 6a 3c d9 a4 99 3a 56 e7 50 bb
       0.013712884 0.014284287 0.0011722102 -0.0031876168
000070 cf a5 0b bd ee 3a bc 3b 77 02 d2 bc 0a 5d ab 3c
       -0.034093674 0.0057443297 -0.025635941 0.020918388

feature_extractor.12.weight f4 [32, 32, 5, 5]
000000 7e 41 e7 3c bc 36 2b bb 5a 93 64 3c bf 05 90 3c
       0.028229471 -0.0026125154 0.013951147 0.017580865
000010 8a c0 bd 3c 1d 6e 5e bb 43 67 c1 3c 6a 88 4d 3b
       0.023163099 -0.0033940144 0.02360881 0.0031361827
000020 f8 25 e3 3c 0e 95 ac bc 78 f0 af bc df f8 cc bc
       0.027728066 -0.021067169 -0.02147697 -0.025021015
000030 e8 c4 5a 39 36 df 0d 3c 04 d8 e9 bb f5 a8 02 bd
       0.00020863453 0.008659175 -0.007136347 -0.03189941
000040 a2 6b e0 bc 35 c0 98 3c 9a f1 5c 3c ed 68 b0 bb
       -0.027395073 0.018646339 0.013485337 -0.005383602
000050 12 52 54 bb a1 d7 ad bb 07 66 bf bc a4 c1 e6 3c
       -0.003239755 -0.005305246 -0.02336408 0.028168507
000060 9b b1 08 bc 58 ad b3 bc 0a 7a 78 3c dc 6c 00 bc
       -0.008343126 -0.021933243 0.015165815 -0.007838454
000070 83 e7 15 bd 4b 03 93 39 0f 3a 93 3c 4d 02 00 bd
       -0.03659774 0.00028040478 0.01797202 -0.031252194
000080 4f 77 ff bc 19 9f 22 bd 54 8e 17 3c bf d2 38 bc
       -0.03118482 -0.03970251 0.009250242 -0.0112807145
000090 b5 8f 3b bc 0a 5b 9d bc 81 c7 a4 bb 6d 83 3c bb
       -0.011447837 -0.01920845 -0.0050286655 -0.002876486
0000a0 16 1f c7 3b 34 e9 ab bb f8 c1 21 bc ec 6d 14 3d
       0.006076704 -0.005246306 -0.009872906 0.036237642
0000b0 06 39 0d 3c 79 3e b4 3a 88 f7 a4 bc 03 da 2c 3c
       0.0086195525 0.0013751528 -0.020137563 0.010550025
0000c0 e2 63 bf bc 56 fd 7e bc bc 8d e9 3c a8 25 e5 3b
       -0.023363058 -0.01556333 0.028509967 0.0069930144
0000d0 65 0b 7e bc 9c 5a 47 bb 33 74 c1 bc 98 03 fc bb
       -0.015505646 -0.0030418998 -0.023614978 -0.007690858
0000e0 04 f6 b7 3b af a4 da bc 3a 4d 20 bc a0 b8 a2 3c
       0.005614044 -0.026689855 -0.009784037 0.019863427
0000f0 05 3b 11 3d e9 9c ea ba 91 c3 d6 bc be 3e d2 bc
       0.035456676 -0.0017899546 -0.0262163 -0.025664683
000100 1f be 98 ba 4b 3b df 3c 68 07 11 bc 42 c9 95 bc
       -0.001165334 0.027249953 -0.008851863 -0.018284444
000110 73 ca 06 bd 54 2b cd 3c fa 8b 0e bc e2 38 aa bc
       -0.032907914 0.025045075 -0.008700365 -0.020779077
000120 f8 7c ef 3c 99 e9 af bc d6 f1 14 bc f6 9d 3a 3c
       0.029234394 -0.021473693 -0.009090861 0.0113902
000130 a8 d9 cc bc 54 55 bb 3c 27 f1 28 3d f6 77 78 bc
       -0.02500613 0.022867836 0.041245606 -0.01516532
000140 58 e2 46 3c 6f 81 d9 36 20 2a 00 3d 74 4b 69 3b
       0.0121389255 6.482172e-06 0.031290174 0.0035597952
000150 fd be 89 3c ad ea 87 ba 57 85 a2 bb 9b 62 9b ba
       0.016814703 -0.0010369621 -0.004959743 -0.0011854948
000160 ab 39 9d bc 2c 92 a2 3c d9 13 ab 3c 37 78 f7 3c
       -0.019192537 0.01984509 0.020883488 0.03020869
000170 29 9a f3 bc f1 29 9a bc e2 66 8e 3c 47 ac b9 3c
       -0.029736595 -0.018818827 0.017383043 0.022665156
000180 d2 a9 3d bc d2 6c 13 3d 15 2a 8b 3b ee 99 02 bd
       -0.011576133 0.03599245 0.00424696 -0.03188508
000190 38 26 9a bc 04 55 0e bd 1a 27 02 3d fe ea fb bb
       -0.018817052 -0.034749046 0.03177557 -0.0076879254
0001a0 22 fd bb 3c 0c 83 e7 bc 6d ad 00 bd a8 d0 c6 3b
       0.022947852 -0.02826073 -0.03141539 0.006067354
0001b0 b0 6e 2e bc a0 49 db 3b c6 be dc 3c 14 60 ea bb
       -0.010646507 0.0066921264 0.026946437 -0.0071525667
0001c0 4d e0 20 3d 08 42 95 3c 46 8e c9 3c 8d 11 0b bc
       0.03927641 0.018219963 0.024603974 -0.008488071
0001d0 81 74 e1 3c e0 7e 71 bc da d9 cd 3c 2c 52 94 3b
       0.027521374 -0.014739722 0.025128294 0.004526397
0001e0 6d e1 14 3c a3 8d da bb 8d 8f 53 bc 01 ee 1f ba
       0.009086949 -0.0066697164 -0.012912643 -0.0006100834
0001f0 cf 23 d0 3c 81 48 f6 bb 29 9e c8 3c 58 d0 b4 3c
       0.0254077 -0.0075159674 0.02448948 0.022072002
000200 a4 87 9c 3c a2 28 fb 3c f3 7d 98 bb 41 a9 f9 bb
       0.019107647 0.030659024 -0.004653686 -0.0076190536
000210 78 42 a5 3c dd 2a a8 bc 44 1c ed 3c b4 88 10 bd
       0.020173296 -0.020528251 0.028944142 -0.03528662
000220 a3 d7 83 bb 59 2b a0 bc 0b aa d5 3c 44 bd ad bc
       -0.0040235086 -0.01955192 0.02608206 -0.021208413
000230 62 e8 79 bc 3a 13 cb bb 6d b4 0d 3c 06 00 04 bd
       -0.015253158 -0.0061973603 0.008648974 -0.032226585
000240 96 74 a3 bc 22 b3 87 bc ea cb 58 3c 54 2b 0a bd
       -0.019953053 -0.01656491 0.013232211 -0.033732727
000250 25 47 de 3c a2 64 6d 3c e9 87 0a bc 3d fc 3d 3b
       0.027133534 0.014489325 -0.008455255 0.0028989457
000260 cb e4 f8 bc 41 13 ee 3c 0c 3d f9 bc ce 87 b6 ba
       -0.030382534 0.029061915 -0.030424617 -0.0013925971
000270 a2 ee d8 3c 34 9e 9f bc 15 61 9e 3c 2f 95 54 3b
       0.026480976 -0.019484617 0.019333402 0.0032437553
000280 fa e7 da bc 34 f3 0a 3d 68 4d ae 3c 66 06 03 bd
       -0.026721943 0.033923343 0.021277145 -0.031988524
000290 e8 a1 03 3c 53 21 20 3c e4 cb af 3c f6 85 ec 3c
       0.008034207 0.00977357 0.021459527 0.028872471
0002a0 d5 a2 ab bc 94 cc 49 3a 9d c4 0b bd ab 07 fa 3c
       -0.020951668 0.0007698026 -0.034123052 0.030521234
0002b0 e0 70 cc 3c 57 15 a7 bc db 80 a0 bc 46 03 e4 3c
       0.024956167 -0.020395918 -0.019592693 0.027833592
0002c0 09 98 63 bb d5 55 ba bb f3 30 f3 3b f3 55 b1 3c
       -0.0034728071 -0.0056865015 0.0074216067 0.02164743
0002d0 b6 52 15 bd c3 39 ed bb a1 c9 96 ba 7d cb b4 bc
       -0.036455832 -0.0072395517 -0.0011504182 -0.022069687
0002e0 75 ff 92 bc 51 9a 06 3d 3f e7 cb bc e8 c4 c5 3c
       -0.017944077 0.03286201 -0.02489054 0.024141744
0002f0 c2 21 15 3c 7f 14 40 bc 48 31 84 bc 43 af 13 bc
       0.009102287 -0.011723637 -0.01613678 -0.009013954
000300 1b af 06 3d 66 e1 c4 bc 6e 19 ca bc 13 6f 03 bd
       0.032881837 -0.02403326 -0.024670329 -0.03208835
000310 76 78 ab 3c e8 5d f6 3a a1 d8 63 bc f5 1b 31 bc
       0.020931464 0.0018796297 -0.013906629 -0.010809888
000320 69 23 fa 3c ef bc ee 3a 93 22 98 3c 5e 0f c0 3c
       0.030534463 0.0018214266 0.018571174 0.023444828
000330 70 3f 14 bd 9f 8c 95 bc c5 04 37 3c d6 07 d2 bc
       -0.03619331 -0.01825553 0.011170571 -0.025638502
000340 82 4a 9f 39 23 25 68 bb 7d 09 b5 3c 6d b2 cb 3c
       0.00030382356 -0.0035422526 0.02209925 0.024865353
000350 58 aa 9d 3c 92 19 71 3c 05 4f df 3c 7a bb 66 bb
       0.019246265 0.014715569 0.02725936 -0.003520696
000360 6b e4 0a 3d 3b 4e 8d bc cb 95 b9 bc 73 d1 47 ba
       0.033909243 -0.017249217 -0.022654435 -0.0007622458
000370 b4 b3 a9 3c 87 33 a4 bc 89 25 21 3c a7 49 04 bb
       0.020715572 -0.020044101 0.009835609 -0.0020185502
000380 69 a9 f8 3c 23 a3 ac 3c 9d f8 df 3c 92 7c 22 bc
       0.030354219 0.021073883 0.027340228 -0.009917395
000390 69 1b ce 3c 00 1d dc 3c 6b bc 9a bc 81 21 06 3d
       0.025159555 0.026869297 -0.018888673 0.032746796
0003a0 ef c0 ad 3c e5 de 84 bc 57 c3 20 3c f4 4f ff bb
       0.021210162 -0.016219566 0.009812198 -0.0077915136
0003b0 82 f4 69 3b e9 e3 f3 3c b8 ec 2b bc b5 a8 49 3b
       0.0035698717 0.029771762 -0.01049345 0.0030770723
0003c0 4e 7f 44 bb 97 2a b3 3c cb 41 2a 3c f4 ef 30 3b
       -0.0029983106 0.021870894 0.010391663 0.0026998492
0003d0 ac f7 60 bb 16 89 e6 bc 68 bc 02 bd 7a 58 fa 3c
       -0.0034327311 -0.02814154 -0.03191796 0.030559767
0003e0 2a 1c ee bb 7a 70 99 3c cb fc 69 3b f0 94 d3 3c
       -0.007266541 0.01873039 0.0035703655 0.025827855
0003f0 0b a6 d4 3c 9b ad e5 bb 59 f9 69 bc 2a 6e f3 bc
       0.025958082 -0.007009221 -0.0142806405 -0.029715616

feature_extractor.12.bias f4 [32]
000000 3a d3 34 ba bf 8d 03 bd cb 94 e3 3c a7 63 e9 bb
       -0.000689793 -0.0321176 0.027780911 -0.007122475
000010 20 85 93 3c 60 fd 44 3d fd 3d e9 3c 90 42 01 3d
       0.018007815 0.0480932 0.028471941 0.03155762
000020 2c 82 a2 bb 23 6f 1d bb aa 35 35 bc c2 80 d7 bb
       -0.0049593654 -0.0024022541 -0.011060158 -0.0065766284
000030 f9 d6 cf 3c 5a 54 53 bc c9 c0 15 ba 06 68 f5 bb
       0.025371062 -0.012898529 -0.0005712626 -0.007489207
000040 f1 5e f2 bc f5 ea 5d 3a 6f ce 5d 3d f9 f3 b5 3c
       -0.029586287 0.0008465492 0.05415195 0.022211062
000050 fd e6 86 3c 02 35 d8 3b ca d7 09 3c 07 94 52 bc
       0.016467566 0.006598116 0.0084132645 -0.012852675
000060 9f 54 ad 3c a4 f2 79 bb 58 24 19 3c 4c b9 51 3c
       0.021158515 -0.003813901 0.009347044 0.012800526
000070 b9 ef 2f 3d 2e 19 73 bc 05 fd 81 3c fd be 87 3c
       0.042953227 -0.014837546 0.01586772 0.016570562
